models/pong_agent_best.pth (torch, 570774 bytes, 24 tensors)

fc.0.weight f4 [256, 20]
00000000: e9e8 29be 8b1e ddbe 0e06 893e 3a8a 83bd
00000010: ec47 84be a725 6a3c 7bb2 c8bd 85af 993e
00000020: e78c 0fbe b04f 1bbc a4dd a8bb 644b b9bd
00000030: 9fb8 13bd 9035 42bd 4010 5ebd efa9 19bf
00000040: 8a8c bcbe b523 9a3e 9143 f73e fc7f 40be
00000050: d6a3 17be c2af cabd 8382 2fbe 75a2 af3d
00000060: 0cc5 4dbb f252 3fbe 7b02 66be 165d 31be
00000070: 6ec5 a73d 047c d63d 2ffa 5d3b cec8 153e
00000080: 3a61 63be 99cb d93e 8d8e 0e3e c0bf 033f
00000090: df0c 6f3e 1ad9 c53c 028c e63e a70a b73e
000000a0: a756 783e d819 0cbe 1fd8 7bbe 95fb 163e
000000b0: f8f9 233e 0427 b73c 383d 32be 20f1 e9be
000000c0: 9ee5 c63d 34fc 913e 88f7 103e 966c d83d
000000d0: 6a2b 46be cdee c33c 90ca 233e ff4c 24be
000000e0: 12e2 32ba 70d1 f5be 7426 043f 49fa c33c
000000f0: 274e b2bb 96b6 323e dcd0 d33d 4a37 123e
00000100: b2dd 8dbd d2d6 6b3d 73ef 80be 4251 a1bd
00000110: 5b5b c1be 09ea 42bd 3a05 76be 89e3 65be
00000120: 2b61 87bd 81b7 c4be d4cd 3ebd 2f0e b73c
00000130: d2ac 9b3d ff81 18bd 8fb6 8fbe e433 7dbe
00000140: f62b 57bc 8c38 bebc d19f 603d a595 c9be
00000150: c447 d43d 1261 583d 0a0d c7be 6a86 30be
00000160: 3376 993d faa3 16bc 1845 0fbc 3c5f 02be
00000170: cddb 13be 8f1a f3bd e92d 42be 3786 7c3e
00000180: 8810 6cbe 3ce1 a93d c352 d6be a327 acbe
00000190: 2d16 ba3d dc93 02be 35d0 88be b5ca 2b3f
000001a0: c987 e63c ee03 b23e 3e65 0b3e 2fe9 bbbe
000001b0: dd92 703e a8ad 9dbd 29e9 923d 4053 593d
000001c0: f11c 08be 2cbd 80be 0631 5e3e a2bc a13e
000001d0: edb1 4c3e 6188 e23c 9c4f 1cbe b6bb 01bd
000001e0: 4245 253e 7da8 80be de3c 913c f7f8 3abe
000001f0: 9347 b53d 2c8d 3ebc 5c09 75be 6484 88bd
00000200: 76b0 5ebe 9d47 49be 1222 c0bd c786 9bbe
00000210: cd34 0e3e 6379 c1be a015 86bd b16f e33d
00000220: ba57 adbe bcc3 373e 7bfe 5d3d 0d16 313e
00000230: d6ec 013d 49df 83be 0607 bcbd 5090 383d
00000240: 5ef2 50bd ea6c 763d 4cb9 523d 5350 69bd
00000250: e2ae 02be 74e8 29bc f949 c13d 70f0 133d
00000260: 6574 73be f6eb efbe 0a12 973d c2ea f63e
00000270: 651d ebbd 9150 68be 1cda 0abf 4623 833d
00000280: c309 313e a32a 03be 6dd0 9d3e e242 18be
00000290: 5e95 7abd fce2 44be 6fb0 8dbe 7090 8e3e
000002a0: a706 80bd e567 833e 6185 253e ccdd 54be
000002b0: 1359 7a3e 285a bdbd 3d27 bcbb 97c6 c9be
000002c0: 705e 27be 530e a33e fece 843e 8852 653e
000002d0: dc12 ed3d 3446 373d 2865 db3d e3fa 50be
000002e0: f206 d6bd 1571 1cbe ec24 a4be 3156 14bb
000002f0: a9ad 6bbe fa05 3b3e ab1d aeba 5fc4 01be
00000300: d6ce 6b3d 09a8 8cbe 1ac8 b8bd 3fda 8ebe
00000310: a4fb cbbd d605 883d a082 f6be ddd3 c7bc
00000320: dd49 5abe bb2f 62be 425e f73d 3a81 85bc
00000330: 4496 8cbb 342c 533d 2e8d 98be 82dd 82bd
00000340: c26d 813d aa4d 223d 410d b3bd 9de5 d7bc
00000350: 925c 603d cbcd 47bd caa3 06bd eeb1 393e
00000360: 37d2 f0be d57c f43c 166b b5be 4e09 143e
00000370: 1108 533c a1a5 353d 0238 7ebd c59f 34be
00000380: f94b 113e 3c41 1a3e e9b0 2fbe e3ea 63bd
00000390: 610c 8a3d ffd2 843e 6afa e13d c983 59be
000003a0: 6aa4 8abd a647 8c3d 4bfe 373f dc18 4b3e
000003b0: 2d74 83be e71e d1bd 2137 2cbd fe49 1d3f
000003c0: 8eb4 52be 6a2d 9bbd 071e 9e3e a146 203d
000003d0: 1009 093e 9511 03be d2e4 4abc f540 903e
000003e0: 1171 823d 7b21 b33c 3524 8bbe 2a2a 1fbd
000003f0: 8a24 21bd dd32 543c 21a5 83bd 2b03 c6be
-0.16592754 -0.43187365 0.26762432 -0.06422849 -0.25836122 0.014291204 -0.097996674 0.30016723
-0.14018594 -0.009479448 -0.0051533747 -0.09047583 -0.03606474 -0.047414362 -0.054214716 -0.60024923
-0.36825973 0.30105367 0.48293737 -0.18798822 -0.14808592 -0.098968044 -0.1713963 0.08575908
-0.0031397967 -0.18683985 -0.22461884 -0.17320666 0.081919536 0.10472873 0.0033871045 0.14627382
-0.22205058 0.42538145 0.13921566 0.5146446 0.23344754 0.024151374 0.45028692 0.35750315
0.24251805 -0.13681734 -0.24594162 0.14744408 0.16013324 0.022357471 -0.17406166 -0.45691776
0.09711765 0.28512728 0.14156926 0.10567586 -0.19352499 0.02391758 0.1599524 -0.16044997
-0.0006823848 -0.4801135 0.51621175 0.023923056 -0.0054414454 0.17452464 0.10342571 0.14278904
-0.06927051 0.057577915 -0.25182685 -0.07876827 -0.3776501 -0.047586475 -0.24025431 -0.22450079
-0.0661033 -0.38421252 -0.04658301 0.02234563 0.07601322 -0.03723335 -0.2806897 -0.24726826
-0.01313304 -0.023220323 0.054839913 -0.39371982 0.10365251 0.05282695 -0.38877136 -0.17238775
0.07493248 -0.0091943685 -0.008744501 -0.12731642 -0.14439316 -0.118703 -0.18962826 0.24660574
-0.23053181 0.08294913 -0.41860017 -0.3362399 0.09086261 -0.12751716 -0.2672135 0.6710618
0.02814092 0.34768623 0.1361284 -0.36701342 0.23493524 -0.07699138 0.07173378 0.05305791
-0.1329229 -0.25144327 0.21698388 0.31589228 0.19989748 0.027652921 -0.15264744 -0.031673156
0.16139701 -0.25128546 0.017729219 -0.18259035 0.08851542 -0.011630338 -0.23929352 -0.066658765
-0.21747002 -0.19656225 -0.093814984 -0.30376264 0.1388733 -0.37787923 -0.065470934 0.11105288
-0.33855993 0.1794576 0.05419777 0.17293568 0.031720005 -0.2575629 -0.09181027 0.045059502
-0.05101239 0.060162462 0.051446244 -0.05696137 -0.12762025 -0.010370363 0.09437937 0.03611797
-0.2377487 -0.4685971 0.073764876 0.4822598 -0.11480216 -0.22686984 -0.5423906 0.06403212
0.1728888 -0.12809233 0.3082308 -0.14869264 -0.061177604 -0.19227213 -0.2767367 0.27844572
-0.06251269 0.25665203 0.16164161 -0.20787734 0.24448042 -0.092457116 -0.0057419823 -0.39409325
-0.16344619 0.31846866 0.25939173 0.22394764 0.11575863 0.044744685 0.107126534 -0.20408206
-0.104505435 -0.15277512 -0.3205942 -0.0022634382 -0.23015465 0.18263999 -0.0013283988 -0.12672566
0.0575703 -0.2747195 -0.09022541 -0.27900884 -0.09960106 0.06641738 -0.48146534 -0.024393016
-0.21317239 -0.2208852 0.12078525 -0.016296972 -0.004290374 0.051555827 -0.29795212 -0.063899055
0.06319763 0.039624847 -0.08742762 -0.026354605 0.054775782 -0.048780244 -0.032871045 0.18134281
-0.4703538 0.02984468 -0.35433263 0.14456674 0.012880341 0.04434741 -0.062065132 -0.17639072
0.14189138 0.15063947 -0.1715733 -0.055643927 0.06740642 0.25942227 0.11034091 -0.21241678
-0.06769641 0.06849603 0.71872395 0.19833702 -0.25674573 -0.10210972 -0.042044763 0.6144103
-0.20576689 -0.075770214 0.30882284 0.039129857 0.13382363 -0.12799676 -0.012383657 0.28174558
0.06369222 0.02186655 -0.2717606 -0.03885857 -0.039341487 0.01295158 -0.0642798 -0.38674292

fc.0.bias f4 [256]
00000000: 4c43 fabe 8ea0 05bf 5fb8 463e 1f3a b7be
00000010: ead3 2c3e 009d 21bf 4971 4e3d 3811 28bf
00000020: 1510 6a3e 1f37 27bf 9261 1b3f f894 b9be
00000030: 8c28 163f bc48 c3be ad19 b73e 6102 2e3f
00000040: 9305 adbd 19f5 033f a34d 15bf a1a3 8abe
00000050: 7c96 fdbc 0fa3 723d c2ec 8abd 9a6b 213f
00000060: 522c 3dbe 0271 efbe 1c07 2f3f 8e60 613d
00000070: 961e 0e3f fd77 84bd 59da ce3e f962 b43d
00000080: 8d57 2abf cef7 f63e 69cc 293f 53b5 f93e
00000090: 0de0 9d3e 59d2 9f3e bc0a 0fbe 12b2 1cbf
000000a0: e944 f03e f83f b13e 75ea 243f 703b 8d3e
000000b0: 0f03 383e 154b f73e 562e d63e aa3b 4e3e
000000c0: 9f7b 28bf a032 25be 9c78 003e f2ad acbd
000000d0: 8c07 42bf f6be c83e 513a 3a3e 29f1 9e3d
000000e0: 12fe f93e 7a29 8dbe 9eb1 ef3e 8fea b3be
000000f0: ad65 6bbe 485d 73bd 2477 c53e a67b 80be
00000100: 0703 f63d ca6b f53d 0a25 9c3e 6a9a 60be
00000110: fa2f 6b3e 1fde 98bd 46aa 1c3e a976 a9be
00000120: 2608 d5be a9d0 d83e ba55 ccbe 4503 d4be
00000130: 18c7 37be e66a 09bf fb04 e03e e3a4 163e
00000140: 1f70 fd3e 4ef3 903e febe a93d 7f77 203f
00000150: 149a d7be acff 2a3f 4dc7 49be d0c6 03bf
00000160: db31 1ebf 5e2a 2a3f 39ba f4be 4689 21bf
00000170: 79db 313f d453 d3be 2181 33bf 3f30 2fbf
00000180: 26ba 92be 40d9 f63e 8268 93be 125c 913e
00000190: 113a 7ebe fd52 73be eff2 05bf 2e8d e9be
000001a0: 531d 203f 509f 363f 50e4 bebd 865d 0a3f
000001b0: 882a bdbe 84d3 bc3e 5940 dc3e 8af2 a0be
000001c0: fa27 90bd d765 44be 6bdd 0dbf ac12 e13e
000001d0: 4a73 d83e 921b 27bf ed3a e1be 87e3 0e3f
000001e0: 1b22 08bf b7e4 16bf 6f19 7c3e 5c51 e1bd
000001f0: 2653 0dbe 4708 713e 864d ab3e da6a 68be
00000200: 1cbc e03b 9b0d 3a3e 998e be3e 3308 cd3e
00000210: 8286 0cbf eb3c 92bd bb0c da3e 972a 26bf
00000220: 8347 2fbe 37b6 0b3f 207c 1b3e 931c 223f
00000230: 2da8 18bf 66e1 1b3f e928 4cbc d8ff 113f
00000240: 2aa3 cc3e 0fb2 093f ed78 45bf 5ce2 af3d
00000250: 91b9 223e dd3c fd3e 9c24 b13d 83f7 f53e
00000260: 7706 eb3e cd2a 18be 4239 2c3f 21b9 1f3e
00000270: 4b2a b6ba c14e 003f c7f5 68be d9e2 1dbf
00000280: 7615 0cbf 6538 9bbe 2c80 ec3e 48ab d3be
00000290: b2c7 1d3f d755 1f3e d9a5 cb3e 29c8 863e
000002a0: efb0 ed3e cccb c93e 9374 c03e 7360 94bc
000002b0: b9c0 1b3f 321d a83e 4320 97bd 8533 f7be
000002c0: b950 943e e457 93be 6520 ff3d 0c2b 95bc
000002d0: cf5b 08bf cfa2 463e 5bbf 723e e5b5 a33d
000002e0: ce3d 21bf 108a f4bc 98f4 2dbe 8c22 b2be
000002f0: 6434 22bf da52 e23e b027 ac3e a101 1b3e
00000300: ae46 273f e8c3 0dbf 7add 43bd f899 84be
00000310: d8d6 113f 81df 5cbd e291 133f 5bcc 2f3e
00000320: be71 603e e2f7 87be f1e7 f1be 532b babe
00000330: ba31 373e 2af2 a03e 05d5 f1be f33b 99bd
00000340: c84d 38bf c032 ce3e a548 153f ebc9 56bf
00000350: 74ae 49bd 25ea 013f add4 12be 015f 00bf
00000360: 033c 2bbe 06a4 80be 9011 a6bd 8fec 10be
00000370: d9d2 cd3c 3062 45be f5f4 92be c437 0cbf
00000380: 0af0 f93e e8bc e1be d94f f0be 15eb 533e
00000390: aec8 013d a79e 18bd 2781 fabe ebac 063f
000003a0: 07e1 f13e b0b3 0e3f ebb6 933e 2564 03bd
000003b0: 6268 a1bd 7019 013f fffd 043f 2212 dc3e
000003c0: ac43 083e 76b2 f1be e7f8 9ebe ee10 f53e
000003d0: d295 19bf 0be8 98be 0956 dd3e 4384 bf3e
000003e0: f389 8d3e 5f40 e53e 7f0e 3dbe aab4 073f
000003f0: 518d d03e 185c a9bd 7dd9 3c3f 3d4c c6be
-0.48879468 -0.5219811 0.1940627 -0.3578653 0.16877714 -0.6313019 0.050401006 -0.65651274
0.22857697 -0.65318483 0.60695755 -0.36246467 0.5865562 -0.3814143 0.35761777 0.6797238
-0.08448329 0.51545864 -0.5832159 -0.27077964 -0.030955546 0.059237536 -0.06783439 0.6305481
-0.18473938 -0.46765906 0.68370223 0.055023722 0.5551542 -0.064681984 0.4040096 0.0880794
-0.6653984 0.48235935 0.6632753 0.48771152 0.30835 0.3121517 -0.13968939 -0.61209214
0.46927574 0.34619117 0.64420253 0.2758441 0.17969917 0.4829947 0.41832227 0.20139948
-0.6581363 -0.16132593 0.12546009 -0.08431615 -0.75792766 0.39208192 0.18186308 0.077608414
0.48826653 -0.27570707 0.468152 -0.35139892 -0.22988005 -0.05941513 0.3856746 -0.25094336
0.12012296 0.1198345 0.3049701 -0.21933904 0.2296752 -0.07464241 0.15299329 -0.33098343
-0.4160778 0.42346695 -0.39909154 -0.41408744 -0.17947042 -0.5367874 0.437538 0.14711337
0.49499604 0.28310627 0.08288382 0.62682337 -0.4210974 0.66796374 -0.19704933 -0.5147524
-0.61794823 0.664709 -0.47798327 -0.6310009 0.69475514 -0.41274893 -0.7011891 -0.6843299
-0.28657645 0.48212624 -0.2879067 0.28390557 -0.24826838 -0.23762126 -0.5232381 -0.45615524
0.62544745 0.7133684 -0.09320891 0.54048955 -0.3694651 0.36880124 0.43017843 -0.31435043
-0.07038875 -0.19179474 -0.5541598 0.43959558 0.4227546 -0.65276444 -0.4399027 0.5581593
-0.5317704 -0.5894274 0.24619077 -0.11001846 -0.1380125 0.23538314 0.33457583 -0.2269701
0.006858362 0.18169253 0.37218168 0.40045318 -0.5489274 -0.071405254 0.42587838 -0.64908737
-0.17117123 0.5457491 0.15184069 0.6332485 -0.59631616 0.60890806 -0.012460926 0.5703101
0.39968234 0.5378732 -0.77137643 0.085880965 0.158911 0.49460497 0.08649561 0.480404
0.4590337 -0.14860077 0.6727487 0.15597965 -0.0013898102 0.5012017 -0.22750007 -0.6167427
-0.54720247 -0.30316463 0.46191537 -0.41341615 0.61632836 0.15560089 0.3977497 0.26324585
0.46424052 0.39413297 0.3758894 -0.018112397 0.60840946 0.32834774 -0.073792 -0.48281494
0.28967836 -0.28777993 0.12457351 -0.018209003 -0.5326509 0.19398044 0.23705809 0.07993678
-0.6298493 -0.02985099 -0.16987836 -0.34791982 -0.6336119 0.44203836 0.3362403 0.1513734
0.65342224 -0.55377054 -0.04781864 -0.2589872 0.5696845 -0.053924087 0.57644475 0.17167799
0.21918389 -0.26556307 -0.4724727 -0.3636118 0.17890063 0.31434757 -0.47232834 -0.074821375
-0.71993685 0.40273094 0.5831397 -0.8390185 -0.049238637 0.507479 -0.14338942 -0.50144964
-0.16722111 -0.2512514 -0.081088185 -0.1415274 0.025124954 -0.19275737 -0.28702512 -0.5477259
0.48815948 -0.44089437 -0.4693592 0.20695145 0.031685524 -0.037260678 -0.4892666 0.526076
0.47241995 0.5574293 0.28850493 -0.032077927 -0.078812376 0.5042944 0.5195007 0.42982584
0.13307065 -0.47206467 -0.31049272 0.4786448 -0.5999423 -0.29864535 0.43229702 0.37405595
0.2764431 0.44775674 -0.18462561 0.53010046 0.40732816 -0.082695186 0.7376936 -0.3873004

fc.2.weight f4 [128, 256]
00000000: eb86 b43c b661 17bd 68e3 0dbd 3584 71bd
00000010: 163b f1bc 7c5c 7cbc 05db 0a3a e8a1 ca3b
00000020: 065e 3d3d b64f 62bd d1a8 a8bc cf95 a13c
00000030: cde7 923c 0303 01bc 3594 363d b9a4 5b3c
00000040: e41d 5bbd 014a 1c3d 94bb 8f3c 312c 3e3b
00000050: c0f2 293b ce80 2ebc 0091 8dba 09be 11bd
00000060: a4a0 bbbb b03d 153c ab39 1f3d 02e9 28bd
00000070: 6bc9 b03c 17dd bebb 789d 5a3d 8aa5 6b3d
00000080: d801 20bc 4aa3 063d 8b12 05bc 38ef e3bc
00000090: 64d7 16bd ee6c 923c cc42 fd3c 70ed 86bd
000000a0: ec57 983c 91ac c8b9 9fb1 79bd 7c74 4f3c
000000b0: f169 433d 469b 81bd f6c7 7bbc e08e e3bc
000000c0: 8a9d b93c 88aa aebb 9893 cf3c 4000 91bb
000000d0: 3f96 81bc de7c 223d e2f8 bdbc f23e 2dbd
000000e0: 6454 96bd 805e 86bb ff4d 993c 106a 9bbd
000000f0: 6c6e f7bc c395 003a 980d 62bc da6a 50bd
00000100: c417 143c 60f5 4cbc faef 1abd b834 70bc
00000110: c1aa 0cbd d708 f43a 2bfe 65bd 967e 0abd
00000120: 6d03 1d3d c066 073c 2994 89bd 6306 76bd
00000130: 3b09 74bd fdb5 083d 66f0 24bd adaf 5f3a
00000140: ada9 52bc d523 263b 7578 49bd a147 273c
00000150: 8a5a 1a3d 98a2 0e3d cf40 a23c 1af0 63bd
00000160: 78a8 0abd f0e4 32bc 7dfb 193d 85b2 5dbd
00000170: 8a65 86bd da12 a1ba 598b 17bd 6230 72bd
00000180: 7a00 78bc e72d 9b3a 009e 503c 382f 6c3c
00000190: 6eac 143c de5c 12bd df00 8fbb c2d9 74bd
000001a0: 1f66 273d b2a3 62bd f668 8fbc ad2e e0bc
000001b0: 040c 92bc ff4d 70bd 8583 f3bc 7e41 ac3c
000001c0: be0c 57bd 6cdc 29bd 5658 bcbc 71ba 763c
000001d0: 5740 6dbd 60eb 13bc e660 72bd 47b0 cebb
000001e0: abf9 2a3c 0eb8 3b3d f05f 443b 3ef8 d53c
000001f0: da14 7abd 24c1 ebbc c4d4 663d 3fe1 213d
00000200: fe2d dbbc 234b 35bc f65c 41bc a42b bd3c
00000210: f0ac fd3b 8c42 3dbd f88e 4ebc 849a c8bc
00000220: ac3b 453d 908a c53c a545 15bd 33e7 12bd
00000230: 119e 0abc d83d 233d a718 69bd cb23 2cbd
00000240: 6066 62bb 0e34 70bd f5e2 e6bc 9c51 a93c
00000250: 5dc8 c7bc 2ddf 87bc 766a 00bd 8aa2 373d
00000260: 1184 3e3c 1a68 5cbd 7b75 bcbb 50d9 f7bb
00000270: 245e ba3c a986 2abd 2afb 9cbc 2b38 5aba
00000280: 2a7e 513d d073 66bc 599c 803b 5df4 f73c
00000290: f1b5 0b3d ed2a d7bb 2fcd 113c a234 70bd
000002a0: 7b0a 8b3c dd73 783c 0eaa 01bd e258 2f3d
000002b0: 4ac8 ecbc a852 1e3d 3466 e13c a66e f3bc
000002c0: ddfe 1bbd 66d3 893c 7049 f6bc ae74 86bd
000002d0: 358c 263d 4adb 30bc 4ac6 763d 6912 49bd
000002e0: c877 ffbc bce1 85bc 82ea 0fbd dafe 82bd
000002f0: 4142 273d 401e ef3c 7565 783c 8644 86bd
00000300: a216 4b3b 2af3 d73c c77a 0ebd 40cf 253b
00000310: a4f4 d2bc 717e 4e3d fb09 83bd c875 47bd
00000320: 3a5b da3c 6d10 19bd cce0 043c 76bb 233d
00000330: 58e2 18bd 8735 c5bc a8ec 33bd 84fb c63c
00000340: 5485 153d 721c 39bd b37e e7bb a80a 623d
00000350: e6a4 143d 7e32 42bd 5dd1 89bc c1aa 87bc
00000360: a334 0bbb e6cc 0bbd 3c22 7abd 6be9 303d
00000370: fc84 cb3c b81a ee3b 7fa5 323a d1e3 533c
00000380: dc88 e3bc 967c 6fbd d81f 013d ed33 84bd
00000390: a1ae 70bd b011 0abc bfa8 623c cfd0 43bd
000003a0: 8c6f ed3c 6f2c b83b e500 363d 20a9 a5bb
000003b0: 5e4c 42bd ea32 013d 4725 6c3b 7403 b03b
000003c0: 0495 03bd 66e6 80bc b5bd b83c 845f 1f3b
000003d0: 3423 77bd 8b50 073d a380 9bbd 621d 00bd
000003e0: 9a0a 8abd 6461 e53a 3001 a83b 91f9 e63b
000003f0: 05e7 c3bb 1004 4cbd 789e cabc d3d6 21bb
0.02203699 -0.03695842 -0.0346407 -0.058963973 -0.02944712 -0.015402909 0.00052969187 0.0061838515
0.046232246 -0.0552518 -0.02058831 0.019724755 0.017932797 -0.007874253 0.044574935 0.013405972
-0.053495303 0.038156513 0.017545499 0.002901804 0.0025932044 -0.010650827 -0.001080066 -0.035581622
-0.005725937 0.009108946 0.038873356 -0.04123784 0.021580419 -0.005824696 0.05337283 0.057530917
-0.009766065 0.03287057 -0.008122097 -0.02782403 -0.036826506 0.017874207 0.03091564 -0.06588256
0.018596612 -0.00038275545 -0.06096041 0.012662049 0.047708455 -0.06328444 -0.015367499 -0.027778089
0.022658128 -0.0053303875 0.025338933 -0.0044250786 -0.015818713 0.039669864 -0.023189966 -0.042296357
-0.07340315 -0.0041006207 0.01871395 -0.07588589 -0.03020402 0.0004905129 -0.013797186 -0.05088315
0.009038869 -0.012509674 -0.037826516 -0.014661007 -0.03434253 0.0018618357 -0.056150597 -0.033812128
0.038333345 0.008264244 -0.067177124 -0.060064685 -0.059579115 0.033376683 -0.040268324 0.00085329526
-0.012857837 0.0025350947 -0.049187142 0.010209949 0.037684 0.03482303 0.019806294 -0.0556489
-0.03385207 -0.010918841 0.037593354 -0.054125328 -0.06562336 -0.0012288943 -0.036998127 -0.059128173
-0.015136832 0.0011839241 0.012732983 0.014415555 0.009074314 -0.035733096 -0.0043641175 -0.059777983
0.040868875 -0.055331893 -0.017506104 -0.027366007 -0.017827995 -0.058668133 -0.0297258 0.021027323
-0.052502386 -0.041469976 -0.02299134 0.0150590995 -0.057922687 -0.009028286 -0.05917444 -0.006307635
0.010435502 0.045829825 0.002996441 0.026119348 -0.06105504 -0.02877862 0.056355253 0.039521452
-0.02675533 -0.011065277 -0.011801949 0.023092099 0.007741563 -0.046206042 -0.012607329 -0.024487741
0.04815261 0.024113923 -0.03644337 -0.03586502 -0.0084605375 0.0398539 -0.056908276 -0.042026322
-0.0034545884 -0.058643393 -0.028184393 0.020668797 -0.024387533 -0.01658591 -0.03135153 0.044832744
0.011628167 -0.053810216 -0.0057513095 -0.0075637475 0.022749968 -0.04163233 -0.019162733 -0.000832441
0.05114571 -0.014065698 0.003924888 0.030267889 0.03410906 -0.0065663964 0.008899017 -0.058643945
0.01697277 0.015164343 -0.031656317 0.042809375 -0.028904099 0.038653046 0.027514555 -0.029715847
-0.038084853 0.016824435 -0.030064315 -0.06565224 0.040661056 -0.01079447 0.060247697 -0.049089823
-0.031185046 -0.01634299 -0.035135753 -0.06396265 0.04083467 0.029189229 0.015160908 -0.065560386
0.0030988832 0.026361067 -0.03478506 0.0025300533 -0.02575142 0.050413553 -0.06398388 -0.04869631
0.026654828 -0.03736918 0.008110236 0.0399737 -0.037325233 -0.024073375 -0.043926865 0.024289854
0.036504105 -0.045193143 -0.0070646643 0.055185944 0.036290072 -0.047411434 -0.016823465 -0.016560914
-0.002124109 -0.034130953 -0.061067805 0.043191355 0.024843685 0.0072663687 0.0006814822 0.012932734
-0.02777522 -0.058468424 0.03152451 -0.064552166 -0.05876029 -0.008427069 0.0138341775 -0.047806557
0.028983854 0.0056205313 0.044434447 -0.0050555617 -0.04743611 0.031542696 0.0036032961 0.0053715054
-0.032124534 -0.015734863 0.022551397 0.0024318406 -0.060336307 0.033035796 -0.07592895 -0.03127802
-0.06740303 0.0017500338 0.0051270947 0.0070487936 -0.0059784674 -0.04980856 -0.024733767 -0.0024694696

fc.2.bias f4 [128]
00000000: 1c71 2ebc dd09 0cbd 56cd b03c e130 bebe
00000010: 26c9 9ebd 481d b83e d1a8 283e ed13 c6be
00000020: d808 823e 72ac afbe 3389 69be 4a12 9abd
00000030: bcad 07bd 2b2d 883e ba6d 2a3f 06f0 1abc
00000040: 9ee0 a73e 356d c43e 259e 04bd 9d51 a33e
00000050: 3c82 2d3f 1985 35be 2d02 9fbe e63b 843e
00000060: 4134 0f3f 9c88 023f cef6 d33e f47f 27be
00000070: 0ec2 83be 1010 df3e 808e 043f 70fc ef3e
00000080: a1b8 9bbe 5672 903e dd5d 92bd c872 e63c
00000090: 65a1 f3be adde 0f3e 0668 bf3e 93ff aa3e
000000a0: e1a5 6f3e 49e7 f43e 953c cd3e 49d6 163f
000000b0: f27a c23e 6814 993e bc1e 913e b1f0 dabe
000000c0: 51b6 ee3e 0380 0e3f 0496 9c3e 0013 e63e
000000d0: d438 9bbe 235c d0bc 9536 b23b ef1b 7a3e
000000e0: e77d ed3e 0247 9b3d 48d3 50be 72c0 a6be
000000f0: 9949 c83e 3c33 5abd 123b 023f fa43 96bd
00000100: 26aa d93e 66d2 d93e ca7b e0be 0276 f43c
00000110: 0742 2bbe 262e 4b3e 5d5f 8cbb 7e66 af3d
00000120: d55d 503f d325 94be a8fa 38bd a0ad 1abf
00000130: eeb3 d6be ab52 b9bc b8f3 66be 0b64 4ebd
00000140: edba e33d 4f62 b8be cacb 9bb9 48e2 15bf
00000150: ae92 e53e ed2e 16bd 4b30 35bd 84f5 85be
00000160: 1b51 25bd 4c59 aebe 4b8d cebe 2e15 3f3f
00000170: 8bb5 023f c309 2d3e 8fcf 013f 2bb1 e6be
00000180: c6cf 62bd 818b d23e 91bc 04be eecd c1bd
00000190: 08b8 85bd e2c3 2d3e acb6 b23e 08ca d03d
000001a0: c62b cb3e b598 c63c 8a0f d53e 78a3 f53d
000001b0: 3d0f 373e b383 c3bd 08b3 32bf 5ffc 63bd
000001c0: c604 813e add4 6abd 0278 213f 3364 723d
000001d0: b91f 183f 55a0 a5be e6ac a4bc 7fb7 323e
000001e0: 6691 a03e c04c 513d 1803 353e 92b7 ca3c
000001f0: 81aa 88be 3ec2 8b3d bf90 eb3e b0eb b9be
-0.010647085 -0.034189094 0.021582287 -0.37146667 -0.0775321 0.3595984 0.16470648 -0.38687077
0.25397372 -0.34311253 -0.22806244 -0.075230196 -0.03312467 0.2659696 0.6657368 -0.00945664
0.32788557 0.38364568 -0.03237738 0.31898203 0.67776847 -0.17726554 -0.31056347 0.2582695
0.5593911 0.509897 0.41399235 -0.16357404 -0.2573399 0.43566942 0.5177994 0.46872282
-0.30414298 0.2821223 -0.07146809 0.028130904 -0.47584072 0.14049788 0.3738405 0.33398113
0.23403122 0.47832707 0.40085283 0.58920723 0.37984425 0.2989838 0.2834376 -0.42761758
0.4662347 0.5566408 0.30583203 0.4493637 -0.30316794 -0.02543456 0.0054386356 0.24424718
0.46385118 0.07581903 -0.20393097 -0.325687 0.3911865 -0.053271517 0.50871384 -0.07337184
0.42512625 0.42543334 -0.43844444 0.029841427 -0.16724406 0.19841823 -0.004283829 0.08564471
0.81393176 -0.28935108 -0.04516092 -0.6042118 -0.4193415 -0.022622427 -0.22553909 -0.050388377
0.11119638 -0.36012504 -0.00029715738 -0.585484 0.4483847 -0.036665846 -0.04423551 -0.26163876
-0.04036055 -0.34052503 -0.40342173 0.7464169 0.5105826 0.16898255 0.50707334 -0.45057043
-0.05537393 0.41122058 -0.12962557 -0.09463106 -0.06529242 0.16969255 0.34904993 0.101947844
0.39681834 0.024242738 0.41613418 0.1199407 0.17876907 -0.09546604 -0.6980443 -0.0556606
0.25198954 -0.05733173 0.6307374 0.05917759 0.59423405 -0.32348886 -0.020101976 0.1745281
0.3136093 0.051098585 0.17676961 0.024745736 -0.26692584 0.06824158 0.4600887 -0.36312628

fc.4.weight f4 [64, 128]
00000000: c0e9 da3c edf5 823d 1b36 963d 3ca8 96be
00000010: ab5e 8b3d 91b5 e9ba 9756 eabd aec6 74bd
00000020: ce2f afbe ae98 dbbe 8c01 b13d c000 b93b
00000030: 4020 80ba e79d c4bc 2f00 56bd d937 48bd
00000040: 14de bcbf 5332 52be 0a93 43bd 61f3 05bd
00000050: 3aa3 043e c6f4 1f3d 188c 1fbf 75ff 47be
00000060: 8f60 1e3d 55de aabe 365d 59be 1987 183c
00000070: 33f4 02be 97d6 c2bd 551c 19bf 5ca0 203e
00000080: 0a02 ddbd 14a5 87be 2492 083e 00c7 d4bc
00000090: fdd3 2e3c acf6 69bf d4a1 48be 55c3 97bf
000000a0: 756a 59bc c3e2 b0be cf77 35bd 2e90 79be
000000b0: 61db 44be 220b 4ebe 7016 17bf e4de 423e
000000c0: c06f 9b3d 9891 4dbf 9d7f 0abd ce44 dbbd
000000d0: f537 59be 4643 013e 00a0 5dbd 3166 38be
000000e0: 3000 45be ca58 9bbd c538 0cbe 5e81 423c
000000f0: 73eb 21bf c818 6f3d 334a 09be 95df 683e
00000100: e64f 383e c673 913d 4730 f53c d37e 513d
00000110: 45e7 83be 58d5 2abf 92f9 743d d51f 403c
00000120: 29c0 30bd 8120 be3e 3e23 6b3d cc24 e53b
00000130: 04eb 193e 856c 353d ce3c 02bf 053c 833d
00000140: 4a55 abbe 7176 16bd 83f8 4dbd 7c02 223e
00000150: 078f 64be aadc d33c 55bf 4dbd 4208 29bf
00000160: 6278 223d 4125 66bd 6b99 8ebc a914 02be
00000170: 13e6 1dbe b23f 133e 200d a73d 6f83 a5bd
00000180: 5f3b 3dbc 9403 b1be d3dc bdbe bb31 9ebd
00000190: a2b7 babe a1c4 babd 0361 cbbc 1508 67bf
000001a0: de36 9d3d b89f a9bc 4ba1 15bf 7e83 fbbe
000001b0: 9bf0 2ebe 1348 353d cbf7 193c 3d12 c8bc
000001c0: f35f 2abe 22dc 443d 667a 88bd 53f6 d6be
000001d0: b991 a83d ae5c 7ebe 40cd d4bc 6c83 e73c
000001e0: 5a61 793d 5352 7c3e 1b15 a9be 18d0 263c
000001f0: a0ab c13e 671f a2be 5d11 57be 2404 bc3e
00000200: 4a1a 3cbd 4b20 b03c 2688 f7bc 3542 04be
00000210: 6286 4f3b e83c 3cbf f4b1 06be bf6c d73d
00000220: 5d9a adbc 18cc f43e 7782 4f3e 162d babc
00000230: 3d62 0c3d f7fd 59bd b60c 903d bf85 23bd
00000240: 2ce4 c4be 5a71 0cbe 1e54 53bd c7f3 fbbe
00000250: 71d5 8a3d 8493 c83e 3510 ae3e 476a 19bf
00000260: e4e1 243d 0050 8bbf e8fc 73be 9908 7bbd
00000270: 5c55 dbbd 2ec8 3b3d 8863 b5be 7c11 0dbf
00000280: 08be 43bc 6680 bebf 92a9 9b3e 5308 313d
00000290: f8f1 303f 81f7 033f 7262 d93f 2dee 83bf
000002a0: a761 0abf 11c0 73bf 37d5 a6be 6de7 1abf
000002b0: bfa9 edbe e322 20bf e944 55bf 03b0 813e
000002c0: c522 a93e 4247 4dbf 0372 bfbc f2a5 eabe
000002d0: c0ce ea3c ee5e bf3d f424 c7bc ca18 70bf
000002e0: 7dbc 233e 141d 36be 5045 9dbf c5d8 c8bd
000002f0: 7079 9dbe fcf3 813c 371b abbe 5dbd c43e
00000300: 49ab dcbd 3dd1 4bbd f69f babe 4b97 64bd
00000310: ceb2 9a3e e80a 933d 2a7f 38bc 8656 51be
00000320: 75e2 22be adc2 813e 8d09 c2bd c778 01be
00000330: 7d82 e43d 587f 163d 2600 483f a7a2 82bd
00000340: 1abc 5fbe 290d 163e 923a 2d3d 0f5c af3e
00000350: e710 50be 4617 adbb 82a6 a83d facd ecbe
00000360: 04fa 7dbd fa4f 3d3b 54f1 173d c73a 84be
00000370: d8b0 ccbd 24a9 0c3e 0995 d53d cc61 383e
00000380: 5658 83bd 5c41 03bf 5a65 743e 44df ab3e
00000390: 1fcf 3bbe a209 5d3d 9f97 703d 4103 3a3e
000003a0: 3f6f 72bd d6e4 933c 97e4 e5be 4101 4bbd
000003b0: 60f5 e9be cd92 263e 3059 56ba 9769 33bc
000003c0: edab bcbe 230c a1bd c5e1 863c 243a 1cbe
000003d0: 9a22 67be 7227 97bd ce14 403d 518f 4a3e
000003e0: 6e75 fabd 6a68 803d a907 9e3d fa74 69bd
000003f0: 2745 813e 1b06 2a3f ee1a ee3d 1b40 cc3e
0.026722789 0.06394563 0.073345385 -0.29425228 0.06805166 -0.00178306 -0.11442297 -0.05975979
-0.3421616 -0.42889923 0.08642873 0.0056458414 -0.0009775236 -0.024001075 -0.05224627 -0.048881385
-1.4755273 -0.2052701 -0.04774765 -0.032702807 0.12952891 0.039051794 -0.6232314 -0.19531043
0.038666304 -0.3337275 -0.21226963 0.009309554 -0.12788467 -0.09513586 -0.59808856 0.15686172
-0.107914045 -0.26493132 0.13336998 -0.025973797 0.010670659 -0.91392016 -0.19592983 -1.1856486
-0.01327001 -0.34548005 -0.04430371 -0.24371406 -0.19224311 -0.20121434 -0.5901861 0.19030339
0.07589674 -0.80300283 -0.033813108 -0.10706483 -0.21212752 0.12623319 -0.054107666 -0.18007733
-0.19238353 -0.075852945 -0.13693531 0.011871664 -0.6324989 0.058373243 -0.13407211 0.2274154
0.17999229 0.0710216 0.029930247 0.05114634 -0.25762382 -0.66731787 0.05980832 0.011726339
-0.04315201 0.37134174 0.057406656 0.006992912 0.15031058 0.044292945 -0.5087403 0.06407932
-0.33463508 -0.03673405 -0.050285827 0.1582126 -0.22320186 0.025862057 -0.050231297 -0.66028225
0.039665587 -0.05618787 -0.01740714 -0.12703194 -0.15419798 0.14379767 0.081568 -0.080817096
-0.0115498 -0.34573042 -0.37082538 -0.07724329 -0.36468226 -0.09119535 -0.024826532 -0.9024671
0.07676481 -0.020706043 -0.5844924 -0.49123758 -0.17083971 0.04425819 0.009397457 -0.02442276
-0.16638164 0.048061498 -0.06663971 -0.41984805 0.082309194 -0.24840042 -0.025976777 0.028260909
0.060883857 0.24640779 -0.33023915 0.010181449 0.37826252 -0.31664583 -0.21002717 0.3672191
-0.04592351 0.021499773 -0.030216288 -0.12915881 0.0031665792 -0.73530436 -0.13153821 0.105187885
-0.02119177 0.4781196 0.20264612 -0.022726577 0.034273375 -0.053220715 0.070336744 -0.039922472
-0.3845533 -0.13715115 -0.051593892 -0.49209425 0.06778992 0.39175045 0.3399674 -0.5992779
0.04025449 -1.0883789 -0.23826945 -0.061287496 -0.107096404 0.045845203 -0.354275 -0.55104804
-0.011947162 -1.4882934 0.3040281 0.04322083 0.69119215 0.51549536 1.6983168 -1.030706
-0.54055256 -0.95214945 -0.32584545 -0.6050938 -0.46418568 -0.6255323 -0.83308274 0.253296
0.3303434 -0.80186856 -0.023369795 -0.4582973 0.02866304 0.09344278 -0.024309613 -0.93787825
0.15989871 -0.1778453 -1.2286777 -0.098069705 -0.30756712 0.015863411 -0.334192 0.38425723
-0.107748576 -0.049760092 -0.36450166 -0.055808347 0.30214542 0.071798146 -0.011260787 -0.20443162
-0.15906699 0.25343838 -0.09474478 -0.12643729 0.11157701 0.03674254 0.78125226 -0.0637868
-0.21849099 0.14653458 0.042292185 0.34249923 -0.20318948 -0.0052823154 0.08234884 -0.46250898
-0.06200601 0.002888678 0.037095383 -0.25826094 -0.09994668 0.13736397 0.10428817 0.18006057
-0.06413333 -0.51271605 0.23866788 0.33568776 -0.18340729 0.053964265 0.058738347 0.18165304
-0.059188124 0.018053453 -0.44900963 -0.049561743 -0.4569502 0.16266938 -0.0008176742 -0.010950468
-0.3684992 -0.07863643 0.016465077 -0.15256554 -0.22571793 -0.073805705 0.04689484 0.19781233
-0.12229429 0.062699154 0.07716305 -0.056996323 0.25248072 0.66415566 0.1162623 0.3989266

fc.4.bias f4 [64]
00000000: 1434 70be 00b4 babe d825 0ebf faf4 aa3e
00000010: f32b 573f 8b06 1dbe d59c d9be 4965 2abe
00000020: 2cbc a9bd 5c70 babe 0a72 f53d 21e0 d2bc
00000030: 421b 583f 88d1 003c 04a1 edbe 0d61 8abe
00000040: 40dd 833f 7ed9 063f cd9a 363f 56dc 47bd
00000050: 8169 5bbd ebbd d9bd 151e a0be 3b19 fabe
00000060: f455 623f 61dc 0bbf 23b5 79bd f176 8f3e
00000070: ab92 723f 041b 403e f915 32be 9d20 86bc
00000080: ffcc 7fbe b6af c2bd 2b75 82be 36c9 d5be
00000090: d654 4d3f 8011 803f dc58 54bd 6345 563f
000000a0: 3ab3 c93e 8cba dd3e b075 ebbe ce74 8b3f
000000b0: 1890 933e e750 08bf 4060 b9bd eeb3 733f
000000c0: 0770 20bf 0110 f93e b15d 24be 020e 48bc
000000d0: c377 b53d eafd 98be 9e73 af3e d998 183b
000000e0: bf99 563f b648 0b3f 506f 403f de2a 893e
000000f0: 575b 863f 0477 763f c39d 173f fcbe cf3e
-0.23457366 -0.36465454 -0.55526495 0.33390027 0.84051436 -0.15334527 -0.42502466 -0.166402
-0.08287844 -0.36413848 0.11984642 -0.025741639 0.8441659 0.007862456 -0.46411908 -0.2702717
1.0301895 0.52675617 0.7132996 -0.048794113 -0.053567413 -0.10631927 -0.3127295 -0.48847374
0.88412404 -0.54633147 -0.06096376 0.28020433 0.9475505 0.18760306 -0.17391194 -0.016372973
-0.24980544 -0.095061705 -0.25480017 -0.41755074 0.80207574 1.000534 -0.051842555 0.83699626
0.39394552 0.43306386 -0.45988226 1.0895021 0.28820872 -0.5324845 -0.09051561 0.95196426
-0.6267094 0.48645023 -0.16051365 -0.012210371 0.08860733 -0.2988122 0.34267896 0.0023284464
0.8382835 0.54407823 0.7516985 0.26790518 1.0496625 0.96275353 0.592251 0.40575397

fc.6.weight f4 [3, 64]
00000000: 7c9a 56bf 9676 77bf b8b5 70bf 6f14 543f
00000010: ad62 033f 715f f03e 2647 4bbf b7ca 923c
00000020: e61a 18bd 7dca 05bf 2f79 953f 8db0 623d
00000030: bcc3 8c3e a5c0 723d b1b5 e5bd 587b 183e
00000040: 4fed a13d 26b5 303f fba3 933e b4b0 5d3e
00000050: 64f6 223d 46cf 29be 7a2b 6cbf 0ca9 72bf
00000060: 3232 f83d 77c6 65be c6d1 923c 2d6e 7f3f
00000070: 1650 563d 54f7 b63e 47c8 d13e 2eb3 9a3d
00000080: f11d 4abf 4a18 053e 2004 8fbf 59ef 113e
00000090: 4079 c13e 4b06 ec3d 5f94 81bd 2ce0 ad3e
000000a0: b439 813c 9216 893e 2f99 21be 9efe 9a3e
000000b0: a317 3d3f f95f 1cbf be18 003e 355a 953e
000000c0: 598a 4cbe 15f9 cb3e 7396 1cbe f61d b43f
000000d0: 03cb 1f3f 810f 57be 4829 a5bd 5688 31bd
000000e0: 2afa 873e 7709 a73d e34e 303e 78cd 65be
000000f0: 936e 293e d76e 8d3e 9b10 c53d 1d7b a43d
00000100: 1a35 26bf 25f7 66bf f5f0 6fbf 33bc 5b3f
00000110: a106 d63e e860 823e dd9f 9fbd cf44 a3bd
00000120: 5491 453d ef5f 29bf 7b0c 9b3f 6a25 babe
00000130: 9720 d23e 4c71 8b3c ac16 50be f908 d23e
00000140: 5d26 5f3e 254a 423f 0636 b23e b6ff 46be
00000150: 9adb 34be e2ee 0b3e 3fa8 cebf 0918 80bf
00000160: 6691 4c3e 213e 09be 943d ce3d 8da8 7b3f
00000170: 4474 4c3e 4aaa 993e 5239 bebd e352 49bb
00000180: f4bb 9dbf 6da5 b0bd 60cb 50bf cd3e b0be
00000190: 936d 103f 6bac 233e 0dd1 2ebe 3465 883e
000001a0: 66dc 36be 8b2f 673e 7ca2 e0bc fb3f 8c3e
000001b0: 7797 103f c954 67be 4578 a13e 2431 9e3d
000001c0: e0d7 8e3e 69bf d93e 6368 0a3a 9a1b b63f
000001d0: e2d5 a83e e342 fdbe d340 183e 0142 b33b
000001e0: c8b7 9d3e 6346 f63d bf8f 313e 9b79 9b3d
000001f0: 1f1a 923e 1234 1a3e b63c 1ebc 6aaa 09be
00000200: aa00 34bf 62a1 60bf a4ef 5fbf caa7 463f
00000210: b98f 1a3f 0d7e 85be b84c acbe 006e 14be
00000220: d033 863d d8bd 02bf 2710 953f bab0 2d3c
00000230: 917d d43d fbc0 8f3d 537b cdbd 5243 9bbd
00000240: 60d8 2b3e a32f 573f 77cf f23e 17a0 603e
00000250: 22a9 3d3e 7d6e 7c3e 1944 4abf 3d65 5bbf
00000260: 17e8 ac3d 3b0f 57be 4dd2 a8bd 6e2f 883f
00000270: b61a e13d 13bd 983e 6c67 dd3e cf08 a13d
00000280: 4e7d 42bf 1741 b9bd 41ab a1bf 2789 ecbe
00000290: ba28 843e 86b6 6b3e 8ea2 0abe 8e0a 983e
000002a0: 72ed 9d3d fd76 f63d b04d 8abe 5a0c 6a3e
000002b0: 007a 393f c8e0 b3be ba1b d73e 6623 673e
000002c0: ed88 2e3e 5879 ba3e 5dda 80bf 6825 c03f
000002d0: fd98 833e 617d 303c 3de6 a43e 0690 8ebd
000002e0: 5753 a43d 7e58 0fbd 0ea8 893e 7ac6 053e
000002f0: d6f7 363e 3eef 8f3e caab 463e e041 6e3d
-0.83829474 -0.9666532 -0.9402728 0.8284368 0.5132244 0.46947816 -0.7940544 0.017918928
-0.037135027 -0.522621 1.1677607 0.055344153 0.27493083 0.05926575 -0.112162955 0.14890802
0.07906591 0.6902641 0.28836045 0.21649438 0.039785758 -0.16582975 -0.9225384 -0.94789195
0.12118949 -0.2243899 0.017922293 0.9977749 0.05232247 0.3573557 0.40973112 0.07553707
-0.78951937 0.12997547 -1.1173134 0.1425146 0.3778782 0.11524638 -0.06327128 0.33960092
0.015774585 0.26775032 -0.15781091 0.30272382 0.7386419 -0.6108394 0.12509438 0.29170385
-0.1997465 0.39838472 -0.15291767 1.4071643 0.62419146 -0.21002008 -0.080645144 -0.04334291
0.26558048 0.08156102 0.17217593 -0.22441661 0.16546087 0.27623627 0.09622308 0.080312945
-0.64924777 -0.9022086 -0.93727046 0.85834044 0.41801932 0.2546456 -0.077941634 -0.079721086
0.0482343 -0.6616201 1.2113184 -0.3635667 0.4104049 0.017021798 -0.20321149 0.4102247
0.21791978 0.75894386 0.34806842 -0.19433483 -0.17661896 0.13665345 -1.6145095 -1.0007335
0.1997734 -0.13402607 0.10070339 0.98304063 0.19966227 0.30012733 -0.09288277 -0.003071957
-1.2322984 -0.086253025 -0.81560326 -0.34422913 0.56417197 0.15983741 -0.17071934 0.26639712
-0.17857513 0.2257673 -0.027421229 0.27392563 0.56481117 -0.22590937 0.3153707 0.077242166
0.27899075 0.42528847 0.0005279837 1.4227173 0.3297568 -0.49465093 0.14868478 0.0054705148
0.30804276 0.12025144 0.17339991 0.07591554 0.28535554 0.15058926 -0.009658029 -0.13443914
-0.70313513 -0.8774625 -0.8747504 0.77599776 0.60375553 -0.26072732 -0.33652282 -0.14495087
0.06552851 -0.5107093 1.1645554 0.010601217 0.103755124 0.0701923 -0.10033288 -0.075812
0.1678176 0.8405706 0.47423908 0.2193607 0.1852155 0.24651523 -0.7901016 -0.8570135
0.08442705 -0.21001904 -0.08243237 1.0639474 0.10991423 0.29831752 0.43242967 0.07863008
-0.7597245 -0.09045618 -1.2630388 -0.4619839 0.25812322 0.23018846 -0.13538572 0.29695553
0.07711305 0.12034414 -0.27012396 0.22856274 0.7245178 -0.35132432 0.4201334 0.22572097
0.1704442 0.36420703 -1.0066639 1.5011415 0.25702658 0.01077208 0.32206908 -0.06961064
0.08023708 -0.034996502 0.26886028 0.13063994 0.1786798 0.28112215 0.1940147 0.058168292

fc.6.bias f4 [3]
00000000: f5da 533f 923b 5b3f ee45 223f
0.82755977 0.8563777 0.63387954

exp_avg f4 [256, 20]
00000000: 82a7 e3bc 6eda 79bb b6ed ffbc 98d0 f53c
00000010: 23d8 90ba 4605 e3bc 24fb 54bb d313 00bd
00000020: cc03 0a3d c8f9 8cba bade e1bc 9993 2bbb
00000030: 0530 00bd 4c47 893c 2c9c b9ba 7419 e1bc
00000040: 1cfc 16bb 2555 00bd 3db0 16bd 5e87 00bb
00000050: 438a a4bc ffa3 d6ba 9779 e1bc edc8 c13c
00000060: ca51 3cbc 90c0 92bc 09e7 98ba a3e3 e3bc
00000070: 674c dcbc 1cde 20bc c83b 9fbc f0a1 daba
00000080: 31e7 e5bc cd13 3cbd d679 6cbc 071b cfbc
00000090: 60c5 25bb a1db e8bc c320 3bbd 557e adb8
000000a0: 4951 2a3c 8685 1b3c 20ba 513c 5337 9b3c
000000b0: 3523 a43b 8ee3 293c c128 213c 83d3 533c
000000c0: 463a bc3c ac5f aa3b e6ab 2e3c 1c31 283c
000000d0: b5f5 553c ccdd dc3c 3ad5 af3b 3958 363c
000000e0: 097a 303c 3328 583c b156 af3c 4b5c b4bb
000000f0: 130b bdbd a012 15bd 2d8d debd b0e8 483e
00000100: d974 103d 159c b8bd 3001 06bd e7be dcbd
00000110: d94d 2c3e 4b5b 133d a23e babd e229 f2bc
00000120: 5ee7 dabd 6e7d 2f3e c200 b03c 0b7a b9bd
00000130: 16d7 d7bc c3cd d9bd 45f1 303e d1ae d53c
00000140: 4cee e73b e94e 723c e536 393c e848 55bd
00000150: b3e0 953b f3eb f83b da4f 623c 8016 3b3c
00000160: 1bc2 55bd d237 993b 9bce 043c b047 523c
00000170: cd00 3d3c f98f 9fbd cc33 243c 5ed2 043c
00000180: 7d58 3a3c b01b 413c 0a6e 9cbd d604 183c
00000190: 9755 263c 5524 ee3c 1fa7 233c 3051 853c
000001a0: dc0c 0abd 3046 753c 66f8 f03c 14ad 153c
000001b0: 0bd5 1bbd 4605 f5bc 69c3 513c f32a eb3c
000001c0: d469 093c c18f 29bc 4ae8 0ebd 4672 ce3b
000001d0: ca92 e93c 3a40 f63b e062 b1bd c1da 65bc
000001e0: 9aa9 92bd 5173 c0bc 07ba a3bd 3611 a73d
000001f0: d04d 3cbd fd53 92bd 91eb b3bc 9814 a6bd
00000200: 3611 a73d 9ee0 35bd cd83 96bd e463 a7bc
00000210: 995a a8bd 9be7 a53d 8884 48bd 3b27 9cbd
00000220: 91f2 9abc 43dc aabd 4c43 cb3d 2aa6 3ebd
00000230: 87f1 2ebe 92e1 993c cbff 3cbe 52c3 643e
00000240: c1f8 87bc 0eb7 25be 1f32 bc3c 8e6c 3dbe
00000250: 8aac 9a3d c037 70bc 50ad 2bbe c7cb c73c
00000260: a5cc 3dbe d18f 283e e440 24bd 0bb8 2fbe
00000270: a714 e13c 71d3 3ebe d18f 283e 7d66 00bd
00000280: 8a6c ff3d 10ed 6f3d d69b 0d3e 1c0a 0abe
00000290: 410e ffbc bae7 f83d cb8d 653d e6cf 0c3e
000002a0: 4b90 ffbd 08e9 05bd 26de f73d 9ef9 5b3d
000002b0: 4ef9 0b3e c278 e8bd 6b1c 6fbc 63cc fa3d
000002c0: 0a42 533d a599 0b3e 5613 dbbd 6408 aabc
000002d0: 66e8 55be 6aa1 3bbc dcc0 6dbe 6266 603e
000002e0: dd37 04bd a659 52be 469f f0bb 6994 6ebe
000002f0: 4066 603e f5e7 f8bc e660 57be 2df7 53bb
00000300: 865b 6fbe 4066 603e 9637 60bd e64c 5abe
00000310: cf42 653a 46c2 70be 4066 603e bed2 3ebd
00000320: 9977 053e 5e67 743d 3f4d 163e 9dab 33be
00000330: c202 1bbd 23c0 023e b1ed 663d 3955 153e
00000340: 35f2 3ebe 3ba1 1dbd 67a7 033e 869b 583d
00000350: 0459 143e cd63 34be 4044 a1bc cf5a 033e
00000360: 0914 4b3d ffd7 133e e438 42be 9147 ccbc
00000370: 36ec 87bd bd45 c23c cfa9 8fbd 458b d7bc
00000380: a37e e33b f596 82bd 1f3b be3c d04e 8fbd
00000390: ed61 b9bc 0f14 e53b 7b3d 83bd 48c1 ba3c
000003a0: 2ef3 8ebd 37ac e8bc c997 df3b ab65 83bd
000003b0: 7464 b63c bc99 8ebd f6eb 94bd 84c1 d83b
000003c0: bd7c 223e eefa b7bd 7658 323e 5b6e c1be
000003d0: 71a4 953c 30a9 163e 6788 c6bd f2d0 323e
000003e0: 330c 79be 6d55 703c 1b83 1d3e c9dd cfbd
000003f0: fc2f 333e 2eae 5cbe 4886 523d 79eb 233e
-0.027789835 -0.003812458 -0.03124128 0.030006692 -0.0011050742 -0.027712476 -0.0032498324 -0.031268906
0.033695027 -0.0010755593 -0.027572025 -0.0026180504 -0.031295795 0.01675763 -0.0014160923 -0.027477957
-0.0023038452 -0.0313312 -0.036789168 -0.0019611935 -0.02008546 -0.0016375779 -0.027523799 0.02365538
-0.011494109 -0.017914087 -0.0011665534 -0.027818507 -0.0268919 -0.00981858 -0.019437686 -0.0016680341
-0.028064342 -0.04591732 -0.014433345 -0.025281442 -0.0025294647 -0.02842504 -0.04568554 -8.272814e-05
0.010395356 0.009492284 0.012800723 0.01894728 0.00500908 0.010369195 0.009836377 0.012928846
0.022977006 0.0051993933 0.010661101 0.010265615 0.013059069 0.02696123 0.0053659948 0.011129432
0.010771283 0.013193178 0.021403642 -0.0055041662 -0.09230628 -0.036394715 -0.10866771 0.19620013
0.035267685 -0.09014145 -0.032715976 -0.10778599 0.16826572 0.035975736 -0.090939775 -0.029560987
-0.10688661 0.17137691 0.021484736 -0.09056481 -0.026347678 -0.10634949 0.17279537 0.026084336
0.0070779677 0.014789321 0.011304592 -0.052071482 0.0045739054 0.0075964867 0.013812983 0.011418939
-0.052187067 0.0046758438 0.008105899 0.012834474 0.011535835 -0.077911325 0.010022115 0.008106796
0.011373636 0.011786386 -0.07638176 0.009278497 0.010152242 0.029070059 0.009988575 0.016274065
-0.03370367 0.014970347 0.02941532 0.009135503 -0.03804497 -0.029909741 0.012802937 0.028707003
0.008387048 -0.010349215 -0.034889497 0.0063002435 0.028512377 0.0075149806 -0.08661437 -0.014029206
-0.07161255 -0.023492487 -0.07994466 0.081575796 -0.045972645 -0.07144926 -0.021962913 -0.08109397
0.081575796 -0.044403665 -0.07349358 -0.020433374 -0.08220405 0.08100816 -0.048954517 -0.0762467
-0.018914493 -0.08342793 0.09924945 -0.046545185 -0.17084323 0.018784318 -0.18456952 0.22340134
-0.016598107 -0.16183111 0.022973118 -0.18498442 0.075524405 -0.014661729 -0.16765332 0.02438916
-0.18535097 0.16461112 -0.040100947 -0.1716005 0.027475668 -0.18635346 0.16461112 -0.03134774
0.12471874 0.05857569 0.13828978 -0.13480419 -0.031134726 0.12153573 0.056043427 0.13751182
-0.124786936 -0.03269294 0.12102918 0.05370485 0.13669321 -0.11351158 -0.014594178 0.12246015
0.05157665 0.1363283 -0.106970474 -0.020755954 -0.20889434 -0.011452058 -0.23218101 0.21914056
-0.032279838 -0.2054201 -0.0073432056 -0.23298801 0.21914005 -0.030384043 -0.21033058 -0.0032343373
-0.23374757 0.21914005 -0.05474051 -0.21318397 0.0008745612 -0.2351161 0.21914005 -0.0465877
0.13033904 0.05966889 0.14677905 -0.17545934 -0.037844427 0.12768607 0.056379024 0.14583291
-0.18647082 -0.03848384 0.12856828 0.052882694 0.14487082 -0.17616196 -0.019685864 0.1282761
0.049579654 0.14437865 -0.18967015 -0.02493647 -0.066368505 0.023714894 -0.0701481 -0.026311526
0.0069425865 -0.06376449 0.02322155 -0.06997454 -0.022629702 0.0069909166 -0.06408211 0.022797242
-0.069799766 -0.028402431 0.006823514 -0.06415876 0.022264697 -0.06962916 -0.072715685 0.0066148657
0.15867896 -0.08983408 0.17416558 -0.37779507 0.018266888 0.14712977 -0.096939854 0.17462519
-0.2432106 0.014668805 0.15382044 -0.10149724 0.17498773 -0.2155082 0.05139759 0.16007794

exp_avg_sq f4 [256, 20]
00000000: cb57 063c 2185 033a 2b75 313c e2e9 293d
00000010: 242f 813b 2c4a 063c cbf6 ba39 c749 323c
00000020: ae5d 2c3d faf1 823b 63f6 053c c723 8939
00000030: 6a38 333c 00ec 2f3d f551 863b 3b06 063c
00000040: 3ada 7b39 b27b 333c 0cc1 513d c9c4 983b
00000050: ea19 0c3e d937 7a3e 7fab 3c3e 6eb5 7b3f
00000060: 3019 883d 5b56 0d3e 3e31 863e c3df 3d3e
00000070: 0f6a 823f 59b2 893d bef3 0d3e 0cc8 8f3e
00000080: ef23 3f3e f588 843f 6d77 893d ce7f 0e3e
00000090: 45d3 993e 3676 403e b309 843f 3d93 8b3d
000000a0: 33d2 de3a 1f98 763b 802e 193b e18a 923c
000000b0: 9e6c c43a 7b39 df3a b059 843b 0f2e 1a3b
000000c0: fb7e 953c db2b c63a a504 df3a 16e7 8d3b
000000d0: ce4d 1b3b 35bf 993c afe0 c53a 489e df3a
000000e0: c803 983b a471 1c3b a13d 9c3c 21ce c83a
000000f0: 6b10 503e 0c3c 063e e724 923e a3ea bf3f
00000100: 9299 323e 44a2 543e bacb ef3d 4560 933e
00000110: f9b6 bf3f c7e1 323e 28e7 573e 6ed8 d43d
00000120: 609f 943e edb8 bf3f 72ad 323e 8d6c 563e
00000130: 1ebf bb3d bb01 963e 5166 bf3f 342e 313e
00000140: fc8e 313c a517 0e3c f952 7d3c fe54 7f3d
00000150: ab20 dd3b 396a 343c 1adb 033c f9ad 7f3c
00000160: fc0e 803d cd6a e03b 2ac0 363c 0dc3 f43b
00000170: ecfe 803c 9f42 803d b523 e03b 2901 373c
00000180: 608b e03b 5f35 823c f300 803d 1622 e23b
00000190: d797 333e 3e79 b13e cf4f 6f3e 905b a23f
000001a0: 7c5d b63d 2767 353e 87dc bd3e c8d4 703e
000001b0: 8156 a13f 6bc6 b93d 14dd 363e 1c17 ca3e
000001c0: 9458 723e 086a a33f f175 b63d 1285 373e
000001d0: 6abf d53e 57ff 733e 642a 9f3f 365d bb3d
000001e0: 8b7e b13d 5604 f03d 09c8 ef3d 53bd 0f3f
000001f0: 7db7 213d afb3 b13d ad95 dd3d 1848 ef3d
00000200: 34bd 0f3f 2787 253d ee33 b23d 17f6 cb3d
00000210: f4ac ee3d af13 113f d5dd 263d da16 b13d
00000220: 3b12 bb3d 3619 ee3d 379b 113f 6911 253d
00000230: 30b1 183f ac68 403f d205 533f 99c0 8b40
00000240: f181 b03e bdd9 1a3f 6f77 333f 721c 543f
00000250: 5d6b 8c40 6d74 b13e 3ffa 1b3f 1b29 263f
00000260: bc39 553f 82f8 8e40 7ca9 b23e 4288 1b3f
00000270: 6cf0 173f 8d80 563f 82f8 8e40 0bd8 ae3e
00000280: f515 243e 48f5 c73d 4872 673e 8240 873f
00000290: f490 df3d 924a 283e 4c77 b43d 12c9 6a3e
000002a0: 2ee7 873f f37e e03d 0d61 2b3e 437a a23d
000002b0: 7c2e 6e3e 235b 873f f259 e03d 23f2 2b3e
000002c0: 4819 923d 45ba 713e 744d 873f ca4c de3d
000002d0: cef7 183f fd7a 263f 97f5 573f f594 8e40
000002e0: 2586 b33e 7717 1c3f e6dd 173f 883a 5a3f
000002f0: 53b9 8e40 9397 b53e 898e 1e3f 120b 0a3f
00000300: 3188 5c3f 54b9 8e40 b6ae b63e 2eda 1e3f
00000310: 6f0b fa3e 87fd 5e3f 54b9 8e40 74ed b23e
00000320: fa39 493e 314d 243e 39b9 8c3e 8378 bc3f
00000330: 1a3f ff3d cb5d 4d3e 529a 143e ad15 8e3e
00000340: 918e bc3f 36bb 003e a782 503e 60d5 053e
00000350: 7472 8f3e 0c0a bc3f c697 043e d2be 4f3e
00000360: dfef ef3d abf6 903e 4a2d bd3f 2540 033e
00000370: e38d ba3d bae4 ec3c 7575 0d3e be2c 133f
00000380: 87a3 d33d bac0 c53d 5472 cd3c 0d7c 123e
00000390: cdd9 133f 5de2 d43d 38e3 ce3d d538 b13c
000003a0: ec9c 173e 3126 123f edd5 d63d c5b3 d13d
000003b0: d52d 973c 58e5 1c3e 9a4b 113f 3f57 d63d
000003c0: f020 813f 8035 8e3f 1def b13f 4b65 df40
000003d0: e9af 193f 30d2 823f 6ce8 863f ebe6 b23f
000003e0: 601e e240 e721 1b3f 72c8 833f f4cb 7f3f
000003f0: 88d6 b33f 00b9 e340 17bc 183f 4c50 833f
0.008199642 0.0005017091 0.010831158 0.041482814 0.003942387 0.008196395 0.0003566056 0.010881848
0.042081527 0.003996131 0.008176419 0.00026157332 0.010938743 0.042949677 0.0040991255 0.008180196
0.00024018521 0.010954784 0.051209494 0.0046621305 0.1368176 0.24435367 0.18424796 0.98323715
0.06645429 0.13802473 0.26209444 0.1854239 1.0188617 0.0672347 0.13862512 0.2808231
0.18666051 1.0354296 0.06712232 0.13915941 0.30043998 0.18795094 1.031546 0.06815193
0.00169999 0.0037627292 0.0023373663 0.017888488 0.0014985984 0.001703068 0.004039012 0.0023525988
0.018249026 0.0015119271 0.0017014934 0.004330526 0.0023697498 0.018767932 0.0015096868 0.0017060721
0.0046391226 0.0023871446 0.019072356 0.001532022 0.20318763 0.13108844 0.2854378 1.499348
0.17441395 0.20765024 0.1170878 0.28784385 1.4977714 0.1746894 0.21084273 0.10392843
0.29027843 1.497831 0.17448977 0.20939846 0.09167312 0.29298195 1.49531 0.17302781
0.010837313 0.0086726295 0.015461677 0.062336914 0.006748279 0.011011654 0.008047843 0.015605443
0.06252858 0.006848669 0.011154214 0.007469541 0.015746556 0.06262707 0.006840194 0.01116971
0.0068525523 0.01589459 0.06250181 0.006901036 0.17538391 0.34662813 0.23370288 1.2684193
0.089045495 0.17715131 0.37082312 0.2351867 1.2604524 0.09071048 0.17857772 0.39470756
0.23666602 1.2766733 0.08909214 0.17921856 0.417476 0.23827873 1.2434812 0.09148638
0.08666714 0.11719577 0.117080756 0.5614826 0.03948163 0.0867685 0.10819564 0.11683673
0.56148076 0.040412094 0.08701311 0.09959047 0.11654082 0.5667066 0.0407389 0.08646937
0.091343366 0.11625902 0.56877464 0.040299807 0.59645367 0.75159717 0.82430756 4.3672605
0.34474137 0.6048849 0.70104116 0.82855904 4.388106 0.34659138 0.6092872 0.6490647
0.8329122 4.4678354 0.3489493 0.6075479 0.5935123 0.837899 4.4678354 0.34149203
0.16024001 0.097635806 0.22602189 1.0566561 0.109163195 0.16434696 0.088118166 0.22928265
1.0617425 0.10961714 0.1673624 0.07933476 0.2325992 1.0574688 0.10954656 0.16791587
0.07133728 0.23606212 1.0570512 0.1085449 0.5975312 0.65031415 0.84359115 4.455683
0.35063282 0.60973305 0.59322965 0.8524556 4.4601226 0.35467204 0.6193624 0.5392314
0.8614531 4.460123 0.3568017 0.62051666 0.48836848 0.871056 4.460123 0.34946787
0.19651023 0.16045071 0.27485064 1.4724277 0.124632075 0.2005531 0.14511994 0.27750912
1.4731008 0.12571415 0.2036234 0.13069677 0.28017008 1.4690566 0.12948522 0.20287636
0.11715674 0.28313193 1.4779446 0.12817438 0.09109094 0.02891766 0.13814338 0.57490146
0.10333925 0.096559 0.02507893 0.14305134 0.5775421 0.10394738 0.10101932 0.021633545
0.14805955 0.57089525 0.10490022 0.102393664 0.018454472 0.15321863 0.56755984 0.104658596
1.0088177 1.1110077 1.3901097 6.981115 0.6003404 1.0220394 1.053968 1.397672
7.066208 0.60598606 1.0295546 0.9992058 1.4049845 7.116333 0.59662 1.025888
