models/pong_agent_0.pth (torch, 570753 bytes, 24 tensors)

fc.0.weight f4 [256, 20]
0	0x3d7fa94a	0.062417306
1	0xbe4b4e24	-0.19854027
2	0xbda358b2	-0.07975902
3	0xbd0733d5	-0.033008415
4	0xbde66c8c	-0.112511724
5	0x3e26ea86	0.16300401
6	0x3e40586e	0.18783733
7	0xbce378cf	-0.027767567
8	0x3cd717a8	0.026256397
9	0x3d693c94	0.056942537
10	0x3d8a3300	0.06748009
11	0x3e0c2539	0.13686074
12	0xbc468cd1	-0.012118534
13	0xbe20cf23	-0.15704016
14	0x3dcc9722	0.09989764
15	0xbe10de1c	-0.14147228
16	0x3dbcb451	0.0921408
17	0xbdad2786	-0.08454804
18	0xbd83babe	-0.064321026
19	0xbe51e808	-0.20498669
20	0xbd246fac	-0.04014556
21	0x3d9d1960	0.076708555
22	0x3e2e9381	0.17048456
23	0xbde3dbe0	-0.11125922
24	0xbdff1659	-0.12455434
25	0xbbfb6b4c	-0.007672703
26	0x3e4a813b	0.1977586
27	0x3e2f94e1	0.17146637
28	0x3e50b951	0.20383193
29	0xbe5073a6	-0.20356616
30	0x3e65861e	0.22414443
31	0xbe4cdf61	-0.20007087
32	0x3db4c869	0.08827288
33	0xbe30a83f	-0.17251681
34	0x3c8bdce3	0.0170731
35	0x3d2ca470	0.042149007
36	0xbe621518	-0.22078359
37	0x3db3fa19	0.08787937
38	0x3e05aa13	0.1305316
39	0xbe74d0bc	-0.23907751
40	0xbc34f50f	-0.011044755
41	0x3d845ebd	0.064633824
42	0x3db84efd	0.08999441
43	0xbe3b01e7	-0.18262444
44	0xbe1cd24f	-0.15314601
45	0xbe2aaf3f	-0.16668414
46	0x3d3aa66f	0.04556888
47	0xbe185693	-0.14876775
48	0x3e23914b	0.15973394
49	0x3e24798f	0.16061996
50	0xbe53b5e9	-0.20674862
51	0x3dcce0f1	0.10003842
52	0x3df0330f	0.11728489
53	0x3d1ce68d	0.038305808
54	0xbd11eba3	-0.03562511
55	0x3d2225cd	0.03958683
56	0x3e1b4c77	0.15165888
57	0x3da06dbd	0.07833431
58	0xbdfa9ae2	-0.12236573
59	0x3d87b4ba	0.06626268
60	0x3dcb47cb	0.09925803
61	0x3b7dc5ac	0.0038722558
62	0x3d16a0c7	0.036774423
63	0x3e375fd7	0.17907654
64	0xbda3f740	-0.080061436
65	0xbb4b8279	-0.003105311
66	0xbe25e0be	-0.16199014
67	0x3e3cc90d	0.1843607
68	0xbe07d811	-0.13266017
69	0x3e2b15a1	0.1670747
70	0x3e4cc0ea	0.19995466
71	0x3e0237d5	0.1271661
72	0xbcc30ab6	-0.023808818
73	0xbe0e12d5	-0.13874371
74	0xbe5a0224	-0.21289879
75	0xbd44a72d	-0.048010994
76	0xbd58cce5	-0.052929778
77	0x3e2d952b	0.16951434
78	0xbe33143a	-0.17488185
79	0x3dac3108	0.084077895
80	0xbe0a21b8	-0.13489425
81	0xbe622b2d	-0.22086783
82	0x3dc76853	0.09736695
83	0xbd1f0d90	-0.038831294
84	0xbdd4b472	-0.1038598
85	0x3de8be1a	0.11364384
86	0xbdf4b552	-0.119486466
87	0x3e361eed	0.17785235
88	0xbe236f30	-0.15960383
89	0xbe6abb83	-0.22923093
90	0x3df4a368	0.1194523
91	0x3c533ddc	0.012893166
92	0x3db56eca	0.08859022
93	0xbe6fa4ce	-0.23402712
94	0xba190261	-0.00058368413
95	0x3da4fae6	0.080556676
96	0x3de978f2	0.114000216
97	0x3e45e86b	0.19326942
98	0x3d85c0d7	0.06530922
99	0xbdac8cb9	-0.08425278
100	0x3dcae5c3	0.09907105
101	0x3e4a94e2	0.19783357
102	0xbcb4e725	-0.022082875
103	0x3e3bc125	0.18335398
104	0x3dc35a52	0.095387116
105	0x3d87f072	0.06637658
106	0xbe162620	-0.14662981
107	0x3d5fa010	0.054596007
108	0x3d83d20d	0.064365484
109	0xbd124378	-0.035708874
110	0x3e3aab52	0.18229416
111	0x3e3be5f3	0.18349437
112	0xbe0e0ccc	-0.13872069
113	0x3d938420	0.07202935
114	0xbdf4b94a	-0.119494036
115	0x3d6863b1	0.056735698
116	0xbe1e4e10	-0.15459466
117	0xbd2ff3b9	-0.04295704
118	0xbde602c1	-0.11230994
119	0x3e207d3d	0.15672775
120	0xbe1ce780	-0.15322685
121	0xbddcc68f	-0.107800595
122	0x3dc851e8	0.097812474
123	0x3dd359ac	0.10319838
124	0xbdfd258e	-0.123606786
125	0xbe611858	-0.21981943
126	0xbd0f1c04	-0.034938827
127	0x3d4cf2f8	0.0500364
128	0xbd66ca74	-0.056345418
129	0x3df9ef9c	0.12203905
130	0xbe3b7b89	-0.18308844
131	0xbe1872a7	-0.14887486
132	0xbdda104a	-0.10647638
133	0xbe086d0e	-0.13322851
134	0x3e260f36	0.1621674
135	0xbd3f1bcc	-0.04665737
136	0x3d248c40	0.040172815
137	0x3e06c96a	0.13162771
138	0x3e455844	0.19271952
139	0xbd9612d6	-0.073278114
140	0xbda9e826	-0.08296232
141	0xbe53d9da	-0.20688573
142	0x3dbc39e5	0.0919073
143	0xbc91597f	-0.01774287
144	0x3e261ad4	0.16221172
145	0x3d2c50d1	0.04206926
146	0xbe1ad9ec	-0.15122193
147	0xbdc72aa5	-0.09724931
148	0x3da73241	0.08163882
149	0xbd45794b	-0.048211377
150	0xbe118943	-0.14212517
151	0x3d6b99d6	0.057519756
152	0xbc44a935	-0.012003233
153	0x3e0f6e1a	0.14006844
154	0xbe13de20	-0.14440203
155	0xbe34a886	-0.17642412
156	0x3daeba42	0.085316196
157	0x3cbde656	0.023181122
158	0xbd824d35	-0.06362382
159	0x3d133d58	0.035947174
160	0x3e459451	0.1929486
161	0x3e34796e	0.17624447
162	0x3e1e9dcf	0.15489887
163	0x3dc50309	0.096197195
164	0xbe68270a	-0.22671142
165	0xbd51b146	-0.05119445
166	0x3be6d279	0.0070441333
167	0x3e26a8ff	0.16275404
168	0x3c68f931	0.014219568
169	0x3e40a42c	0.18812627
170	0xbdbcacd8	-0.09212655
171	0x3dc4de8b	0.09612759
172	0xbe0ab3f3	-0.13545208
173	0x3e34e9be	0.1766729
174	0xbe0de334	-0.13856202
175	0xbd959794	-0.07304302
176	0x3e20de23	0.15709738
177	0xbd47ebce	-0.048808865
178	0xbe2946c8	-0.16530907
179	0x3df45878	0.119309366
180	0x3d89d290	0.06729615
181	0xbe204e51	-0.15654875
182	0x3e5672a2	0.20942166
183	0x3de52b80	0.111899376
184	0xbd41103c	-0.047134623
185	0xbcdda2ff	-0.027055262
186	0xbe2615bb	-0.16219227
187	0x3dce32f3	0.100683115
188	0x3e45cf4d	0.1931736
189	0x3dc81bfb	0.09770962
190	0x3e30da93	0.1727088
191	0xbc64383f	-0.013929426
192	0xbd979be2	-0.07402779
193	0x3ca17b7d	0.019712204
194	0x3d82cea7	0.06387072
195	0x3e6278f4	0.22116452
196	0xbbe477e2	-0.006972299
197	0x3d273096	0.04081782
198	0xbe06ad77	-0.13152109
199	0x3ced97f8	0.029003128
200	0x3c7c2150	0.015388802
201	0x3e591981	0.21201135
202	0x3e2f81d8	0.17139375
203	0xbdf8b846	-0.12144522
204	0x3e2e2d11	0.17009379
205	0xbd4d840c	-0.050174758
206	0x3e11b4c3	0.14229111
207	0xbe085576	-0.13313851
208	0xbe13882a	-0.14407411
209	0xbde9e32c	-0.11420283
210	0x3e1d54b4	0.15364343
211	0xbe5d8af9	-0.21635045
212	0x3e5309c9	0.20609201
213	0xbe3d1023	-0.18463187
214	0x3e3a6578	0.1820277
215	0x3d1376b6	0.036001883
216	0xbd1644a6	-0.036686562
217	0x3da9f3a8	0.08298427
218	0x3dfcacd4	0.12337652
219	0x3cca8f54	0.024726547
220	0x3e04887d	0.12942691
221	0xbc77aa6c	-0.015116315
222	0x3e0df0bc	0.13861364
223	0xbe13abab	-0.14420955
224	0xbe2b3ff5	-0.16723616
225	0xbd90db9a	-0.07073136
226	0xbe202bbe	-0.15641686
227	0x3dbec1a6	0.09314279
228	0xbdc728fa	-0.097246125
229	0xbcfe76ef	-0.031062571
230	0xbcd48bca	-0.025945563
231	0x3e0b9739	0.13631906
232	0x3e352c20	0.17692614
233	0xbddab867	-0.10679703
234	0x3d983ac5	0.074330844
235	0x3e324315	0.17408402
236	0xbd892ec0	-0.0669837
237	0xbe3cfa8f	-0.18454956
238	0x3db183d7	0.086677246
239	0x3ca0bbd4	0.019620813
240	0xbe46ebd6	-0.19425902
241	0xbc97b0a8	-0.018516853
242	0xbe313697	-0.1730598
243	0x3d626d41	0.055279974
244	0xbe1d52fd	-0.15363689
245	0x3dba3e9f	0.09093975
246	0xbe628eb3	-0.22124748
247	0x3e4c9afa	0.19980994
248	0x3e0dceee	0.13848469
249	0x3e1f956f	0.15584348
250	0x3e20f15f	0.15717076
251	0xbe1702a4	-0.14747101
252	0xbe33ce52	-0.17559174
253	0xbda09550	-0.07840979
254	0x3e03dc77	0.1287707
255	0xbe2522dc	-0.16126579

fc.0.bias f4 [256]
0	0x3df9f8ab	0.12205633
1	0xbdd651ef	-0.10464846
2	0xbd35761e	-0.0443021
3	0x3d843d30	0.06456983
4	0x3d3e208d	0.04641776
5	0x3cba6edb	0.022757938
6	0xbdf1882f	-0.11793553
7	0x3e29a676	0.16567406
8	0x3d213763	0.03935946
9	0x3e2713a3	0.16316085
10	0xbdf1f373	-0.118140124
11	0xbd881acb	-0.06645735
12	0x3e0c0bb2	0.13676336
13	0xbd0fd0ba	-0.035111167
14	0x3d180099	0.037109945
15	0x3d133a2a	0.03594414
16	0xbe2907c0	-0.16506863
17	0xbe57c0e8	-0.21069682
18	0xbe47e6f9	-0.19521703
19	0x3da0fa01	0.078601845
20	0xbd053aa3	-0.032526623
21	0xbe4c0848	-0.19925034
22	0x3e5c1f28	0.2149626
23	0xbe1183e4	-0.14210469
24	0x3d84befb	0.06481739
25	0x3e2ff416	0.17182955
26	0x3e2293c3	0.15876679
27	0x3e6866ed	0.22695513
28	0x3e5b8235	0.21436389
29	0xbd9fcb21	-0.07802416
30	0x3d86ea5b	0.065876685
31	0xbe0d32f5	-0.1378897
32	0x3e12d5a9	0.14339317
33	0x3d073115	0.033005793
34	0xbe25bf01	-0.16186143
35	0xbd5425a6	-0.051793717
36	0xbcf89ca0	-0.030348122
37	0x3e2150a5	0.1575342
38	0xbd9344b6	-0.0719084
39	0xbe47ef93	-0.19524984
40	0x3e49d060	0.19708395
41	0x3dfc130b	0.1230832
42	0xbe66f003	-0.22552495
43	0xbdf6f507	-0.12058454
44	0x3d8070b0	0.062714934
45	0x3c90c41d	0.01767164
46	0xbdfd5e0f	-0.12371456
47	0x3c716ba2	0.014735134
48	0xbe07b00a	-0.13250747
49	0xbdca35c4	-0.09873536
50	0x3e1dd990	0.15415025
51	0x3e0d9ebf	0.13830088
52	0x3e2478e3	0.1606174
53	0xbafae400	-0.0019141436
54	0xbca6a324	-0.020341463
55	0x3d17fbf0	0.0371055
56	0x3d04b41d	0.032398332
57	0x3dfbad61	0.12288929
58	0x3e063ac0	0.13108349
59	0xbd83a469	-0.06427843
60	0x3d186b77	0.03721186
61	0x3dc4be5a	0.09606619
62	0xbd8765ce	-0.066112146
63	0xbdf67da2	-0.12035681
64	0xbcc1492e	-0.023594465
65	0xbcc8beec	-0.024505101
66	0x3e2de0fb	0.16980354
67	0xbde394e2	-0.111123815
68	0x3d3ed46b	0.046589296
69	0xbe07585c	-0.132173
70	0xbdfe68ec	-0.12422356
71	0xbdb6defe	-0.08929251
72	0x3d37ba72	0.044855542
73	0xbcc30cc0	-0.02380979
74	0x3de5dba2	0.11223532
75	0x3e485295	0.19562753
76	0x3db7bd20	0.089716196
77	0xbda7dbdc	-0.08196232
78	0x3d8298a9	0.06376774
79	0xbe0d95e8	-0.13826716
80	0x3e045708	0.12923825
81	0xbe4938bf	-0.19650553
82	0xbe3fb1ad	-0.18720122
83	0x3dfcc078	0.12341398
84	0xbe4ac78f	-0.19802688
85	0xbd3934ca	-0.04521636
86	0xbdfc487d	-0.123185135
87	0xbe4af194	-0.19818717
88	0xbe119e40	-0.14220524
89	0x3ba65bab	0.0050768456
90	0xbdf980fc	-0.12182805
91	0x3e1cdf0f	0.15319465
92	0xbdc4d2fe	-0.09610556
93	0xbd4a37d6	-0.049369656
94	0xbe018544	-0.12648493
95	0x3e5b6998	0.21427
96	0x3e487118	0.19574392
97	0xbd8a599f	-0.06755375
98	0x3e1bbbb9	0.1520833
99	0xbd4e3c2e	-0.05035036
100	0xbe3f919c	-0.1870789
101	0xbe03b141	-0.12860586
102	0x3e25a467	0.16175996
103	0x3e40d04f	0.18829463
104	0x3e41601d	0.1888432
105	0x3e14269e	0.14467856
106	0xbd926408	-0.07147986
107	0x3df9f084	0.12204078
108	0xbe260eb0	-0.1621654
109	0xbe12f5a5	-0.14351518
110	0xbe1ec529	-0.15504898
111	0x3e1e9f88	0.15490544
112	0xbe103d8a	-0.14085975
113	0xbe02a2fc	-0.12757486
114	0x3e111970	0.1416986
115	0xbd5466e5	-0.05185594
116	0x3c8992f0	0.016793698
117	0xbd20f45c	-0.03929554
118	0xbc9a83f0	-0.01886174
119	0xbe28bf43	-0.1647921
120	0xbe2d37d1	-0.16915824
121	0xbd5b678e	-0.053565554
122	0xbd965dd6	-0.073421165
123	0xbd9e16d6	-0.07719199
124	0xbe68fa88	-0.2275182
125	0x3e2be405	0.16786201
126	0x3d908859	0.07057256
127	0x3d9e3d7c	0.07726571
128	0xbdf3fc67	-0.11913376
129	0xbde62688	-0.11237818
130	0x3e5eeef3	0.2177084
131	0x3d2a7e25	0.041624207
132	0xbe3d86b3	-0.18508415
133	0xbd7e19d5	-0.062036354
134	0x3d690326	0.05688777
135	0xbe15e4bc	-0.14638036
136	0x3e63ccce	0.22246096
137	0x3e07e38d	0.13270397
138	0x3e075cca	0.1321899
139	0xbe06d7c3	-0.13168244
140	0x3deb8023	0.114990495
141	0x3dc90bc5	0.09816698
142	0x3de0fa54	0.10985246
143	0x3d7d671c	0.06186591
144	0x3e3b21ff	0.18274687
145	0xbdfe6153	-0.12420907
146	0xbdda303d	-0.10653732
147	0x3d0a261e	0.033727758
148	0xbc8e7777	-0.01739095
149	0xbe232b3e	-0.15934464
150	0xbe1a7c30	-0.15086436
151	0x3e337c37	0.17527853
152	0x3db24970	0.08705413
153	0xbdd902c9	-0.10596234
154	0x3e4d6f07	0.20061885
155	0xbde7130f	-0.11282932
156	0xbd0d57a6	-0.034507416
157	0x3d9bd058	0.07608098
158	0xbe47a47d	-0.19496341
159	0xbdc8e528	-0.09809333
160	0xbcec22af	-0.028825132
161	0x3e45c5a3	0.19313674
162	0x3de9e5a1	0.11420751
163	0x3e21f326	0.1581541
164	0xbce0dce7	-0.027449084
165	0x3e3e57ca	0.18588176
166	0xbd3f1ea0	-0.046660066
167	0xbe1e115f	-0.15436314
168	0xbe637668	-0.22213137
169	0xbc8f70c0	-0.017509818
170	0x3e47a1a6	0.19495258
171	0xbe1e6932	-0.15469816
172	0x3d03db32	0.032191463
173	0xbcc0e298	-0.023545548
174	0x3e0c3d92	0.13695362
175	0x3ccffcfa	0.025389183
176	0x3cd6d053	0.026222384
177	0x3e50cb67	0.20390092
178	0xbe58c034	-0.2116707
179	0x3e354dc7	0.17705451
180	0xbdfcba67	-0.12340241
181	0x3dcf80fb	0.10132023
182	0xbdf1c33d	-0.11804817
183	0x3cbda937	0.023151977
184	0x3e2730c4	0.16327196
185	0x3e283be8	0.16429102
186	0xbdee7039	-0.116424985
187	0x3d808052	0.06274475
188	0x3e12610e	0.14294836
189	0x3d4b6ea6	0.04966607
190	0xbe3e1257	-0.18561684
191	0xbc2feeb6	-0.0107380655
192	0x3c64cb3b	0.01396447
193	0xbc83b94b	-0.016079566
194	0xbe4e77c0	-0.20162868
195	0xbe3c7e82	-0.18407634
196	0xbd893dfe	-0.06701277
197	0xbd79121a	-0.06080828
198	0x3dd655ad	0.1046556
199	0xbd6dcf51	-0.05805904
200	0xbe40e18d	-0.18836041
201	0x3e5fa1b4	0.21839029
202	0xbe1452d8	-0.14484727
203	0xbe1f4437	-0.15553366
204	0x3dd5318e	0.104098424
205	0x3d42b285	0.04753353
206	0x3df37834	0.11888161
207	0x3d238815	0.0399247
208	0xbca8f531	-0.020624729
209	0xbe6144fb	-0.2199897
210	0x3e5847b5	0.21121104
211	0x3e69d94e	0.22836801
212	0xbe24318a	-0.16034523
213	0xbdb65a12	-0.08903898
214	0xbe46b78b	-0.19405954
215	0x3d901314	0.07034889
216	0x3db4802c	0.08813509
217	0xbdc939c3	-0.0982547
218	0xbe4aef9f	-0.1981797
219	0xbd6e04e8	-0.058110148
220	0xbde25095	-0.11050526
221	0xbe01b72c	-0.12667531
222	0x3d4e1cf5	0.050320584
223	0x3e1dedb0	0.15422702
224	0x3d5279da	0.051385738
225	0x3e2f29ad	0.17105742
226	0xbb885b38	-0.0041612647
227	0x3d941367	0.07230263
228	0x3da5c233	0.08093681
229	0xbadcab98	-0.0016835807
230	0x3dea531d	0.11441634
231	0x3de08ef0	0.10964763
232	0xbb5b7370	-0.0033485554
233	0x3e1edf7b	0.15514939
234	0xbd841cf4	-0.06450835
235	0x3e144adb	0.1448168
236	0xbc9ea31f	-0.019364892
237	0xbd97453d	-0.07386253
238	0xbaaf49a5	-0.0013373388
239	0xbe55506c	-0.2083146
240	0xbe39f1ad	-0.18158598
241	0xbd8d1ce7	-0.06890278
242	0xba5d80e5	-0.0008449688
243	0x3e532bdf	0.20622204
244	0x3d056636	0.03256818
245	0xbdffe11a	-0.124941066
246	0xbe45e430	-0.19325328
247	0xbda9f2bf	-0.08298253
248	0xbd3ffd04	-0.046872154
249	0xbe19670c	-0.14980716
250	0x3e264a86	0.16239366
251	0xbb756ae1	-0.0037447738
252	0xbdf51151	-0.119661935
253	0xbe1c3d93	-0.15257864
254	0x3e1bdc4d	0.15220757
255	0xbd9f2de7	-0.07772427

fc.2.weight f4 [128, 256]
0	0xbd56a2d4	-0.05240138
1	0xbd677d1e	-0.056515805
2	0x3d10d6b6	0.035361014
3	0x3d1e2c26	0.038616322
4	0xbcb9b5b4	-0.02266965
5	0x3d689ae0	0.056788325
6	0x3b9b1ca0	0.004733637
7	0xbc78d2f0	-0.01518701
8	0xbcb8ef88	-0.022575155
9	0xbc31f7a0	-0.010862261
10	0xbc9a7d14	-0.01885847
11	0xbc8c3598	-0.0171154
12	0x3d09f4a8	0.033680588
13	0x3d79d1b4	0.060991004
14	0x3d326800	0.043556213
15	0xbd7494d8	-0.05971226
16	0x3d61b982	0.055108555
17	0xbd36cd2e	-0.04462927
18	0x3d4b17ee	0.049583368
19	0xbd2282a0	-0.039675355
20	0xbd2aaac6	-0.04166677
21	0xbd61dc6e	-0.05514186
22	0x3d4fd7a2	0.050742753
23	0x3ccdbc88	0.025114313
24	0xbd74f892	-0.059807368
25	0x3d73c970	0.059518278
26	0x3bdd75f0	0.006758444
27	0xbd35669a	-0.0442873
28	0xbc8bd7b8	-0.017070636
29	0xbd3a0048	-0.045410424
30	0xb95a3e00	-0.00020813197
31	0xbbeebb50	-0.007285513
32	0xbd248d74	-0.040173963
33	0xbd6f2ed6	-0.058394276
34	0xbcd5dce0	-0.026106298
35	0xbce06e00	-0.027396202
36	0xbd6592f2	-0.05604834
37	0x3d15a36c	0.036532804
38	0xbcfe7b10	-0.03106454
39	0xbd0d9890	-0.034569323
40	0xbd05fa56	-0.032709442
41	0xbbbdc940	-0.005791813
42	0xbca81c68	-0.020521358
43	0xbd54a63e	-0.051916353
44	0xbd43b1fc	-0.04777716
45	0xbd2b4f14	-0.04182346
46	0xbd737c3e	-0.05944466
47	0x3d6e2d50	0.058148682
48	0x3c375728	0.011190213
49	0xbb29ce00	-0.002591014
50	0x3d598d3a	0.0531132
51	0x3d69c896	0.05707606
52	0x3d0cf742	0.03441549
53	0xbd29c340	-0.04144597
54	0xbd06da9e	-0.032923333
55	0x3d1ecf04	0.038771644
56	0x3c21a7f8	0.009866707
57	0xbcca47c4	-0.024692424
58	0xbc6f87e0	-0.0146197975
59	0xbaceb800	-0.0015771389
60	0xbb9bf490	-0.0047593787
61	0xbc8aa974	-0.016926505
62	0x3d0e1f8e	0.03469806
63	0x3ce88fa0	0.028388798
64	0xbcf1f410	-0.029535323
65	0xbd5f7efa	-0.054564454
66	0xbd3f9576	-0.046773396
67	0xbcdef114	-0.027214564
68	0x3d425aea	0.047449984
69	0x3be60710	0.007019885
70	0xbcf3d92c	-0.029766642
71	0x3d00573c	0.031333193
72	0xbd67d564	-0.05659999
73	0x3bc9c310	0.0061572865
74	0xbc400390	-0.011719599
75	0xbd25f0e4	-0.040512934
76	0x3d25f26e	0.040514402
77	0x3d57d04c	0.05268888
78	0xbd6b2eba	-0.05741761
79	0xbc910d70	-0.017706603
80	0x3be73100	0.007055402
81	0xbcc6bdf8	-0.024260506
82	0xbd5f843a	-0.05456946
83	0xbbe567e0	-0.0070009083
84	0x3b84c1a0	0.004051402
85	0xbbfc1670	-0.0076931044
86	0xba71b800	-0.00092208385
87	0xbba2b1e0	-0.004965052
88	0xbc5a3e88	-0.013320573
89	0xbd1602f0	-0.036623895
90	0xbd4b3afe	-0.049616806
91	0xbc474030	-0.0121613
92	0x3cd08f30	0.025458902
93	0xbc951810	-0.01819995
94	0x3d24c1c2	0.040223844
95	0xbb756dc0	-0.003744945
96	0xbd4dffc2	-0.050292738
97	0x3cb67f38	0.02227746
98	0xbc006e40	-0.007838786
99	0x3d217448	0.039417535
100	0xbbc836d0	-0.00611005
101	0x3b31f700	0.002715528
102	0x3d164e76	0.03669592
103	0x3d37a82c	0.044838116
104	0x3c2c68a0	0.010522991
105	0xbb705ea0	-0.0036677495
106	0xbc781bc8	-0.015143342
107	0x3d1554b8	0.036457747
108	0xbd69f6a4	-0.05711998
109	0x3c8c49c4	0.017125018
110	0x3d450be0	0.048107028
111	0xbd27e9c2	-0.040994413
112	0xbcf8cff4	-0.030372597
113	0xbc286cf8	-0.010279886
114	0xbd52219e	-0.05130159
115	0x3d34f86e	0.044182234
116	0xbd0cdbb6	-0.03438922
117	0x3c17b038	0.009258322
118	0x3d476fde	0.04869067
119	0xbb002c80	-0.0019557774
120	0xbd2999d2	-0.04140646
121	0xbd3b1ae8	-0.045679957
122	0xbd2803dc	-0.041019306
123	0xbce9f4cc	-0.028559111
124	0xbca0eaa4	-0.019643135
125	0x3d3cb4b0	0.046070755
126	0xbd550228	-0.05200401
127	0xbccb593c	-0.024822824
128	0x3d26d040	0.040725946
129	0xbcb92d78	-0.022604689
130	0x3d340c72	0.04395718
131	0x3d5727e4	0.052528277
132	0x3bfba170	0.007679157
133	0x3cc9fecc	0.02465763
134	0x3bff3640	0.0077884495
135	0xbd52e112	-0.051484175
136	0xbcfcb600	-0.030848503
137	0xbd448476	-0.047977887
138	0xbd30462c	-0.04303567
139	0xbd3e5002	-0.04646302
140	0xbbf01000	-0.007326126
141	0xbc2f01b0	-0.010681555
142	0xbd21ef54	-0.03953488
143	0x3d0b74a6	0.03404679
144	0x3cd0b874	0.02547858
145	0xbc5e4a00	-0.013567448
146	0xbd383c4e	-0.044979386
147	0x3c7d4490	0.015458241
148	0xbd41917c	-0.047257885
149	0xbd54bdaa	-0.05193869
150	0xbd2e89fa	-0.042612053
151	0xbd23367e	-0.03984689
152	0x3cd72ee8	0.026267484
153	0x3b2c7420	0.0026314333
154	0xbc1480d8	-0.009063922
155	0xbd310642	-0.04321886
156	0xbcf99320	-0.030465662
157	0xbc33e790	-0.010980502
158	0x3d27ac36	0.040935718
159	0x3bafd4f0	0.0053659603
160	0x3d7b5a04	0.061365142
161	0xbd3b1546	-0.045674585
162	0x3d725278	0.05916068
163	0x3cbe0b70	0.023198813
164	0xbd01f74e	-0.03172999
165	0x3ba03b30	0.004889868
166	0xbd7856f0	-0.060629785
167	0xbd65fc8e	-0.056149058
168	0x3cf4dc78	0.029890284
169	0x3d0b9e62	0.034086592
170	0xbd5fa784	-0.054603115
171	0xbbea0c30	-0.007142566
172	0xbd6caf00	-0.05778408
173	0xbd21d3c2	-0.03950859
174	0x3d0c1da8	0.03420797
175	0xba043180	-0.00050427765
176	0x3d2643c0	0.040591955
177	0x3cdd4c44	0.027013905
178	0x3c9983e8	0.018739656
179	0x3d67fa74	0.056635335
180	0x3d3ccc68	0.046093374
181	0x3ccf1654	0.025279202
182	0xbd51284a	-0.051063813
183	0xbcb189dc	-0.021672182
184	0xbd4bba32	-0.049738117
185	0xbd686adc	-0.056742534
186	0x3c9d03a8	0.019166782
187	0x3d2e5386	0.042560123
188	0x3c24d368	0.010060169
189	0xbd516948	-0.051125795
190	0xbd092e72	-0.03349156
191	0x3d35163a	0.04421065
192	0xbd72fd8e	-0.05932384
193	0x3d3226a4	0.04349388
194	0x3d3fc2d4	0.046816662
195	0x3d2b9b34	0.04189606
196	0x3d57da4a	0.05269841
197	0xbd6b3402	-0.057422645
198	0xbd08e486	-0.033421062
199	0x3b4975e0	0.0030740425
200	0xbc05e120	-0.00817135
201	0x3d688624	0.05676855
202	0x3d5f09fe	0.05445289
203	0xbb974f70	-0.004617624
204	0x3d0d7faa	0.034545578
205	0x3cae2fcc	0.021263026
206	0x3c0dc7c0	0.008653581
207	0xbd2b1316	-0.04176625
208	0x3c03f688	0.008054383
209	0x3aa8d740	0.0012881532
210	0x3d2258cc	0.039635465
211	0x3d74aa4e	0.059732728
212	0x3c185ec8	0.009299941
213	0x3d5888e4	0.052864924
214	0x3cd7f654	0.026362576
215	0x3d561a38	0.052271098
216	0x3d26f5be	0.0407617
217	0xbc3584f8	-0.0110790655
218	0xbccc1248	-0.02491106
219	0x3d661fb2	0.05618257
220	0xbd2712aa	-0.040789284
221	0xbd3545f0	-0.04425615
222	0xbd3a6e5e	-0.04551541
223	0xbd6247da	-0.055244304
224	0x3d61fdae	0.05517357
225	0x3cf65e84	0.030074365
226	0x3ccea46c	0.025224887
227	0xbce427fc	-0.027851097
228	0x3d6814a4	0.05666031
229	0xbbdcb110	-0.0067349747
230	0xbc551e30	-0.013007686
231	0xbd6b10e4	-0.057389155
232	0xbd4d1e7a	-0.050077893
233	0xbcfd6524	-0.030932017
234	0xbcd93c88	-0.026518121
235	0x3bcbed80	0.0062233806
236	0xbd626492	-0.055271693
237	0x3d70c91e	0.05878555
238	0xbd013400	-0.03154373
239	0xbd0108be	-0.031502478
240	0x3ce535a4	0.02797968
241	0x3bf4f050	0.0074749365
242	0xbca39944	-0.019970544
243	0x3ca5c990	0.020237714
244	0xbd74d0da	-0.05976949
245	0xbcbd8da0	-0.023138821
246	0x3d3052ea	0.043047823
247	0xbd556ae6	-0.0521039
248	0xbc845004	-0.016151436
249	0x3c973018	0.01845555
250	0xbc0960b8	-0.008384876
251	0x3b7e43c0	0.0038797706
252	0xbd0c62e0	-0.034273982
253	0x3c6ba368	0.014382221
254	0x3b96b420	0.0045991093
255	0xbb39a580	-0.0028327405

fc.2.bias f4 [128]
0	0x3cb6c564	0.02231092
1	0x3c82213f	0.015884994
2	0x3d854895	0.065079845
3	0x3d935cc3	0.07195427
4	0xbbadec80	-0.005307734
5	0x3d5ebc4f	0.054378804
6	0xbaae528a	-0.0013299745
7	0xbd76a9f2	-0.060220666
8	0x3d2c83b4	0.04211779
9	0xbd1ca840	-0.038246393
10	0xbd2d82a0	-0.0423609
11	0x3cf4004e	0.029785302
12	0x3d55ec0d	0.05222707
13	0x3d00b77e	0.03142499
14	0x3d90776b	0.07054027
15	0x3d3c9b73	0.046046685
16	0xbcea05eb	-0.028567275
17	0x3c716220	0.0147328675
18	0xbd3adfcd	-0.04562359
19	0xbc416698	-0.011804245
20	0xbd123703	-0.035696995
21	0x3d393b44	0.045222536
22	0xbd690f38	-0.05689928
23	0xbce2cd82	-0.027685884
24	0x3d2249f4	0.03962131
25	0xbd11555c	-0.035481796
26	0xbd2e11ca	-0.042497434
27	0xbcc97a35	-0.024594406
28	0x3d6d912c	0.057999775
29	0x3d50857e	0.050908558
30	0x3c02c724	0.007982049
31	0x3d55733b	0.052111845
32	0x3c96992f	0.01838359
33	0x3cb71bc4	0.022352107
34	0x3d18ff04	0.037352577
35	0x3bbcc0c8	0.005760286
36	0x3ca064d5	0.01957933
37	0x3b893500	0.0041872263
38	0x3d776d6d	0.06040709
39	0x3d2066c0	0.03916049
40	0xbd16b7ed	-0.0367965
41	0x3d477294	0.048693255
42	0x3d77f312	0.060534544
43	0x3d49ad33	0.04923744
44	0xbd229df6	-0.039701425
45	0x3c032885	0.008005266
46	0x3c9cc2da	0.019135881
47	0x3ae9a681	0.0017826111
48	0xbb94bd08	-0.004539136
49	0x3a73281b	0.00092756905
50	0xbca4963c	-0.020091169
51	0x3cde0218	0.027100608
52	0x3cf69106	0.03009845
53	0xbd5c161f	-0.053732034
54	0xbcf5d0db	-0.030006817
55	0xbbb63f74	-0.0055617634
56	0x3bc13634	0.005896354
57	0x3b00250c	0.0019553332
58	0x397a6380	0.00023878925
59	0xbcb794bd	-0.022409791
60	0x3cdbeb95	0.026845733
61	0x3d0ea4fb	0.034825306
62	0x3d83566c	0.06412968
63	0xbc0d83ec	-0.00863741
64	0x3c2c30e6	0.010509705
65	0xbcd16585	-0.025561104
66	0xbb77356b	-0.0037721049
67	0xbb739960	-0.0037170276
68	0x3c6cc3c1	0.014450968
69	0xbbf0dca1	-0.0073505198
70	0xbca42087	-0.020035041
71	0xbc62432f	-0.013809963
72	0xbd0d8856	-0.03455385
73	0xbc8e80bd	-0.017395372
74	0x3bf567b0	0.007489167
75	0x3c20a8c8	0.009805866
76	0x3d4ebf31	0.050475303
77	0x3d669d23	0.0563022
78	0x3cb1a80f	0.021686582
79	0x3d793ec7	0.060850885
80	0xbcd204a2	-0.025636975
81	0xbc673110	-0.0141108185
82	0xbd2ac124	-0.0416881
83	0xbd2c4eb9	-0.042067263
84	0xbd0f7012	-0.035018988
85	0x3d12684a	0.03574399
86	0xbd55edeb	-0.05222885
87	0xbc405b0f	-0.01174046
88	0xbc93418c	-0.017975591
89	0x3cb6b535	0.022303203
90	0xbd7cb5d7	-0.061696853
91	0x3be9d188	0.007135574
92	0xbc81d35d	-0.015847856
93	0x3d8b7c35	0.068108
94	0x3b7fd698	0.003903782
95	0xbd178168	-0.036988646
96	0x3cc699ce	0.024243262
97	0xbc2957dc	-0.010335889
98	0xbcf96ecc	-0.03044834
99	0x3d2101d6	0.03930839
100	0x3ac1d039	0.0014786787
101	0xbd19c40b	-0.037540477
102	0x3cf9e96c	0.030506812
103	0xbd64dc7d	-0.055874337
104	0x3c8865a4	0.016650029
105	0x3cab14e6	0.020883989
106	0x3d661779	0.05617473
107	0x3d8b6c33	0.06807747
108	0x3cdfb590	0.027308255
109	0xbd2804a6	-0.041020058
110	0x3d1bbe19	0.038023088
111	0x3d186ad3	0.03721125
112	0xbb780f0d	-0.0037850768
113	0x3bf509b0	0.0074779615
114	0x3d22f4e2	0.03978432
115	0xbd8a6793	-0.067580365
116	0xbd46c32e	-0.04852598
117	0x3c693854	0.014234621
118	0x3d39ff80	0.04540968
119	0x3d041911	0.032250468
120	0x3d61b272	0.05510182
121	0xbd4a20f0	-0.049347818
122	0xbd027324	-0.031848088
123	0x3d3e0c2b	0.046398323
124	0x3c3c5720	0.011495382
125	0xbce6d5e4	-0.028178163
126	0xbd50524a	-0.050859727
127	0xbc44b57d	-0.012006161

fc.4.weight f4 [64, 128]
0	0x3d889047	0.06668144
1	0x3c934c5a	0.017980743
2	0x3d1de4ba	0.03854821
3	0x3d2c0aa8	0.04200235
4	0x3cc88920	0.024479449
5	0xbc58127f	-0.013188004
6	0x3d0230ba	0.03178475
7	0xbcdf1b23	-0.02723462
8	0x3d338a1e	0.04383289
9	0x3d18f4c1	0.03734279
10	0xbd7eb4f1	-0.062184278
11	0x3d293046	0.041305803
12	0xbd8d7113	-0.06906333
13	0xbc0cb2fe	-0.008587597
14	0xbd2768ad	-0.04087131
15	0x3d2dcac5	0.042429704
16	0xbd89de74	-0.06731883
17	0xbb4199a0	-0.002954103
18	0x3d2bce3b	0.041944724
19	0xbd70765c	-0.058706626
20	0x3db30c1a	0.087425426
21	0x3d4fe69f	0.050757047
22	0x3b12cc40	0.0022399575
23	0x3cb08824	0.021549292
24	0x3db5a9ec	0.08870301
25	0x3c7a9793	0.015294927
26	0x3d6717fe	0.056419365
27	0xbc625ee5	-0.01381657
28	0x3d6b0414	0.057376936
29	0xbd523321	-0.05131829
30	0xbcaef294	-0.021355905
31	0xbba28d37	-0.004960682
32	0xbc6b7562	-0.014371248
33	0xbdaca1d1	-0.084293015
34	0x3c80d997	0.015728755
35	0x3dac1f73	0.08404436
36	0xbcba5f53	-0.022750532
37	0xbcb17629	-0.021662788
38	0xbcbf7d14	-0.023375072
39	0xbda04138	-0.078249395
40	0x3d8761bf	0.066104405
41	0x3cf415df	0.029795585
42	0xbcb84f2b	-0.022498688
43	0x3c9cb38d	0.019128585
44	0x3d068f42	0.032851465
45	0x3d809622	0.062786356
46	0xbbd92877	-0.0066271382
47	0xbda40020	-0.08007836
48	0x3d328967	0.04358807
49	0xbd52f20d	-0.05150037
50	0x3d22d2d2	0.039751835
51	0x3da4b895	0.08043019
52	0xbc19cd9a	-0.009387398
53	0xbd3feb19	-0.046855066
54	0xbd73626c	-0.059420034
55	0x3d82a06d	0.06378255
56	0x3d9e4e66	0.07729797
57	0x3dc510a8	0.096223176
58	0xbd929d9b	-0.07158967
59	0xbd4a7ca1	-0.04943526
60	0xbacf4d42	-0.0015815871
61	0x3c87246b	0.016496858
62	0x3d9d389b	0.07676812
63	0x3cdef857	0.027218027
64	0x3cf004aa	0.029299099
65	0xbcd2f9eb	-0.025753936
66	0x3d016249	0.031587873
67	0xbcd58f54	-0.02606932
68	0x3d98866c	0.07447514
69	0x3dada778	0.08479208
70	0x3c23f13c	0.010006245
71	0xbd84e619	-0.064892
72	0x3bda9942	0.006671102
73	0x3d53c93a	0.051705576
74	0xbd168829	-0.036750946
75	0xbd44a5cd	-0.048009682
76	0xbab366aa	-0.0013687212
77	0xbc9535d9	-0.018214153
78	0x3d189ad5	0.037257034
79	0x3c60a8c0	0.013712108
80	0x3d8f91a3	0.070102
81	0x3db9a19a	0.09064026
82	0xbd3b48e3	-0.045723807
83	0xbd9f374a	-0.077742174
84	0xbda89bec	-0.08232865
85	0x3dac7819	0.08421344
86	0x3d92f31e	0.07175277
87	0x3db3bca7	0.08776217
88	0x3d84d327	0.064855866
89	0x3d94b892	0.072617665
90	0xbcbe9f2d	-0.02326926
91	0xbd5b0441	-0.053470854
92	0xbd87a3b0	-0.06623018
93	0x3dbd538f	0.09244453
94	0xbd3b4246	-0.0457175
95	0xbccc4490	-0.024935037
96	0x3cc4a120	0.024002612
97	0xbd94ca70	-0.072651744
98	0x3ccc7ac3	0.024960881
99	0xbd46ec35	-0.04856511
100	0x3d7fa66f	0.062414583
101	0x3d067b0a	0.032832183
102	0x3d7cfa8e	0.061762385
103	0xbd9f1c79	-0.077691026
104	0xbd898d16	-0.06716363
105	0xbd6d27cd	-0.057899285
106	0xbd2b3b44	-0.041804567
107	0xbcf02f09	-0.029319303
108	0x3d45d83b	0.048301917
109	0x3d36c520	0.044621587
110	0xbd88fada	-0.06688471
111	0x3d510851	0.05103332
112	0x3b0d0073	0.002151516
113	0xbc309070	-0.010776624
114	0xbd458b55	-0.04822858
115	0xbda9d322	-0.082922235
116	0xbc62890a	-0.013826618
117	0x3ad61da8	0.0016335743
118	0xbcdad5e2	-0.026713315
119	0x3d5cf5be	0.053945296
120	0x3d2c6c2f	0.04209536
121	0x3c461c8c	0.012091767
122	0x3d9239a6	0.07139902
123	0x3cf120ec	0.029434644
124	0x3d78f902	0.060784347
125	0xbd8d525e	-0.06900476
126	0xbc28f8c6	-0.010313218
127	0x3d2cbe2f	0.04217356
128	0x3bcdfbc0	0.0062861145
129	0x3957fc00	0.00020597875
130	0xbba91970	-0.005160503
131	0xbd78c040	-0.06073022
132	0xbd854f55	-0.06509272
133	0x3d892c27	0.066978745
134	0xbd0296af	-0.031881984
135	0xbbc20630	-0.0059211478
136	0x3d5cf80e	0.0539475
137	0x3bb2e3c6	0.0054592816
138	0xbd35303a	-0.044235446
139	0x3c8dc253	0.017304575
140	0x3d9b4546	0.07581572
141	0xbb9a611d	-0.004711284
142	0x3c1e84d9	0.009675228
143	0x3dc0f301	0.09421349
144	0xbd40fd51	-0.04711658
145	0x3cee9df0	0.029128045
146	0x3cf5a1b1	0.029984327
147	0xbd90fd9f	-0.070796244
148	0xbd524be3	-0.051341902
149	0x3d871c62	0.065972105
150	0xbd9fe8fe	-0.078081116
151	0x3db91d2d	0.09038768
152	0xbce9fe92	-0.028563771
153	0x3cc650ed	0.02420851
154	0x3d38b179	0.045091126
155	0x3d64722f	0.055772956
156	0xbd3a20dd	-0.045441497
157	0x3d1b5f76	0.037932836
158	0x3cdb447b	0.026766052
159	0x3d272166	0.040803336
160	0x3c9180ea	0.017761666
161	0x3bcbaa70	0.006215386
162	0xbd83cb50	-0.06435263
163	0x3d59acda	0.05314336
164	0x3d597c46	0.053097032
165	0xbdab869e	-0.083752856
166	0xbd8e39b0	-0.06944597
167	0x3dab714f	0.08371221
168	0x3d2d0277	0.04223868
169	0x3d1f9157	0.038956966
170	0xbd2492db	-0.040179115
171	0xbd087fc2	-0.033324964
172	0x3c0a9b00	0.008459806
173	0x3cfc125d	0.030770475
174	0xbd811fd8	-0.06304902
175	0x3d899356	0.06717555
176	0x3d48c772	0.04901833
177	0x3d47314f	0.04863101
178	0xbd9a0b80	-0.07521725
179	0xbd670de6	-0.05640974
180	0xbd254335	-0.040347297
181	0x3d8f2039	0.06988568
182	0xbd507726	-0.05089488
183	0x3c03de70	0.008048639
184	0x3da1b323	0.07895496
185	0xbda65bd8	-0.081229866
186	0xbccad60a	-0.024760265
187	0x3b6dade4	0.0036266977
188	0xbcba690e	-0.022755172
189	0x3d2cb8fd	0.042168606
190	0x3d8849a1	0.066546686
191	0x3bd088ef	0.00636398
192	0x3d354cf4	0.04426284
193	0x3c33b8ec	0.010969382
194	0x3ce52654	0.027972378
195	0xbd177b18	-0.036982626
196	0x3c75b258	0.014996134
197	0x3cfa2f78	0.030540213
198	0x39c2b01e	0.0003713378
199	0xbd8f06b0	-0.069836974
200	0xbd7eabb2	-0.06217546
201	0xbd5de97a	-0.05417774
202	0xbd8b650a	-0.06806381
203	0x3c932c7c	0.017965548
204	0xbccc26e8	-0.024920896
205	0x3d410ebe	0.0471332
206	0x3c4733a4	0.012158308
207	0x3d935e7b	0.07195755
208	0x3d98a151	0.07452644
209	0xbd351327	-0.04420772
210	0x3d46fc7a	0.048580624
211	0x3da3f016	0.08004777
212	0xbcb3f7ec	-0.021968804
213	0xbcbe5a5d	-0.023236448
214	0x3cf00df0	0.02930352
215	0xbc1a24ca	-0.009408185
216	0xbdb08185	-0.08618454
217	0x3bee63f7	0.0072751003
218	0x3c758852	0.014986115
219	0x3d9b344d	0.07578335
220	0x3cd7bc02	0.026334766
221	0x3d280d3a	0.04102824
222	0xbd7c35be	-0.06157469
223	0x3c8f3ee4	0.017486043
224	0x3d916e81	0.07101155
225	0x3d0683c4	0.032840505
226	0x3d8500b0	0.06494272
227	0x3d8039bc	0.06261012
228	0xbceee06c	-0.029159747
229	0x3d09db5e	0.03365647
230	0xbda683c6	-0.081306025
231	0xbcfb4507	-0.030672563
232	0x3d92ae90	0.071622014
233	0x3d939e3d	0.07207916
234	0xbcf4cc06	-0.029882442
235	0xbdd56e7d	-0.104214646
236	0xbd90d231	-0.07071341
237	0xbb853158	-0.00406472
238	0xbcfd3874	-0.030910708
239	0xbd90d369	-0.07071573
240	0x3bc8c0ed	0.006126514
241	0xbd9815fc	-0.07426068
242	0xbd212cf9	-0.03934953
243	0xbd1ad25d	-0.037798274
244	0xbd8d3ccd	-0.068963625
245	0x3d1088da	0.03528676
246	0x3d158f13	0.0365134
247	0x3d318ef3	0.043349218
248	0xbd9ed522	-0.077554956
249	0x3d4c4296	0.04986819
250	0x3cba908d	0.022774005
251	0xbd64019f	-0.05566561
252	0x3c4a2ad0	0.012339309
253	0x3d3496d3	0.04408915
254	0xbc93ca08	-0.018040672
255	0xbc51885c	-0.012788858

fc.4.bias f4 [64]
0	0x3dafe70a	0.08588989
1	0xbd905f3d	-0.07049415
2	0xbce86d83	-0.028372532
3	0x3c9b284b	0.018940112
4	0xbb4f1d57	-0.0031603181
5	0xbb9dfe03	-0.0048215403
6	0xbd0277bf	-0.03185248
7	0x3da44c72	0.08022393
8	0xbd41ed53	-0.04734547
9	0x3d1f3c21	0.038875703
10	0x3db6099d	0.08888552
11	0x3cbf17e4	0.023326822
12	0x3c7bc9a5	0.0153679
13	0xbd193292	-0.037401743
14	0xbc76368b	-0.0150276525
15	0xbcfca185	-0.030838737
16	0xbb87202b	-0.004123708
17	0x3d805146	0.06265502
18	0xbd22fa55	-0.039789516
19	0xbdad0a87	-0.084492736
20	0xbd10f080	-0.03538561
21	0xbd1915fa	-0.037374474
22	0x3d056afe	0.03257274
23	0xbd9f6caa	-0.07784398
24	0xba8e58af	-0.001086017
25	0x3d76cf99	0.060256574
26	0xbda5c65b	-0.08094474
27	0xbda3ef08	-0.08004576
28	0xbd8bc01d	-0.06823752
29	0x3d8e49f3	0.069476984
30	0x3d4aa952	0.049477883
31	0x3d111f42	0.0354302
32	0xbd83bf74	-0.06433001
33	0xbd7466be	-0.059668295
34	0xbd06d61e	-0.03291904
35	0x3d13836a	0.036013998
36	0xbd329b58	-0.04360518
37	0xbcb6042c	-0.022218786
38	0xbbc5b300	-0.0060333014
39	0x3cd8f648	0.026484624
40	0xbd5a0e98	-0.053236574
41	0xbd68c05e	-0.05682408
42	0xbc3cd10a	-0.011524448
43	0x3bc38da0	0.0059678108
44	0x3d762f07	0.060103443
45	0xbd03be3e	-0.03216385
46	0x3d4034ac	0.04692523
47	0xbc355f6e	-0.0110701155
48	0xbc2d3024	-0.01057056
49	0x3c701b6c	0.014654975
50	0x3d46dab4	0.048548415
51	0xbd4497e0	-0.0479964
52	0x3db40297	0.087895565
53	0xbd930c4a	-0.07180078
54	0x3cbf908c	0.023384355
55	0x3da92e72	0.08260812
56	0x3d95c057	0.073120765
57	0xbd80684e	-0.062698945
58	0xbc940dc5	-0.018072972
59	0x3cd2a171	0.025711747
60	0xbc9dff48	-0.019286767
61	0x3d9256aa	0.07145436
62	0xbd7b9c97	-0.061428633
63	0xbd614140	-0.054993868

fc.6.weight f4 [3, 64]
0	0x3c2d369c	0.010572102
1	0xbdb88003	-0.09008791
2	0x3dbe06fe	0.092786774
3	0x3cc2a3b5	0.023759702
4	0xbdc6bb99	-0.0970375
5	0x3d48bb45	0.04900672
6	0x3de5483c	0.11195418
7	0xbcddc87c	-0.027073137
8	0x3ca96100	0.020676136
9	0xbcb83fa9	-0.022491293
10	0x3cc18991	0.023625167
11	0x3d89edc9	0.06734807
12	0x3d791644	0.06081225
13	0xbdfcbc1e	-0.12340568
14	0x3ddaa024	0.10675076
15	0xbd88522a	-0.066562966
16	0x3d76a3c5	0.060214777
17	0x3ce93fc6	0.028472792
18	0xbd06708b	-0.032822173
19	0x3d467f34	0.048461154
20	0xbddbe2ba	-0.10736604
21	0xbd08d547	-0.033406522
22	0xbd8181b2	-0.063235655
23	0x3db4c710	0.08827031
24	0xbd9afbe9	-0.07567579
25	0xbdea6d74	-0.11446658
26	0xbdb5cf6a	-0.08877452
27	0x3dc12aa2	0.0943196
28	0x3b828811	0.0039835055
29	0x3c3f78ad	0.011686486
30	0x3cbb313d	0.022850627
31	0x3d328759	0.04358611
32	0x3d962dba	0.073329404
33	0xbc6c39ae	-0.014418049
34	0x3d9e6290	0.07733643
35	0x3ca5c8bf	0.020237325
36	0xbbb1bc19	-0.0054240343
37	0x3dbee590	0.09321129
38	0xbde98152	-0.11401619
39	0xbd9d5c96	-0.07683675
40	0xbd213e3d	-0.039365996
41	0xbd0fbbf6	-0.035091363
42	0xbd44d908	-0.04805854
43	0xbd6b4b77	-0.057445016
44	0xbca9c126	-0.020721983
45	0xbd288d66	-0.041150473
46	0xbc8a6252	-0.016892586
47	0x3d8e2d83	0.069422744
48	0x3d2924c9	0.041294847
49	0x3d2e33ca	0.04252986
50	0x3d190689	0.037359748
51	0xbe13e834	-0.14444047
52	0x3dad5bed	0.08464799
53	0xbe00e401	-0.12586977
54	0xbdcbf981	-0.099596985
55	0xbdb001e6	-0.08594112
56	0x3da9991f	0.08281159
57	0x3cdaf7fc	0.026729576
58	0x3d2d8570	0.042363584
59	0x3bb506f7	0.005524512
60	0x3d66754c	0.056264207
61	0x3cdd8cd3	0.02704469
62	0xbe047b2a	-0.12937608
63	0x3c06727d	0.008206007
64	0x3da5b8b3	0.08091869
65	0x3dc3dbe4	0.09563425
66	0x3dc62f71	0.096770175
67	0x3da14b53	0.07875695
68	0xbd681f8f	-0.05667072
69	0x3d178830	0.036995113
70	0xbddf6e7c	-0.10909745
71	0xbd0a8336	-0.03381654
72	0x3da4b92c	0.08043131
73	0x3d55962c	0.05214517
74	0x3c923058	0.017845318
75	0xbe06c9d1	-0.13162924
76	0x3de1e0ef	0.11029231
77	0xbbecc460	-0.007225558
78	0x3defda56	0.11711566
79	0xbd81893a	-0.06325002
80	0xbd4da5de	-0.05020701
81	0x3db4f321	0.08835436
82	0x3c282236	0.010262063
83	0x3d9880cd	0.07446442
84	0x3d683ef4	0.05670066
85	0x3d8ca0e6	0.068666264
86	0xbdebbe0c	-0.11510858
87	0x3b83538a	0.0040077614
88	0x3bf27a7e	0.007399856
89	0xbc9da101	-0.019241812
90	0x3d92e48c	0.07172498
91	0xbcd90646	-0.02649225
92	0x3ca6f385	0.020379791
93	0xbdb5a720	-0.08869767
94	0x3d2f7845	0.042839307
95	0x3dce71f2	0.10080327
96	0xbde8c435	-0.113655485
97	0x3de64d5d	0.112452246
98	0x3d76a3ca	0.060214795
99	0xbcacfe6e	-0.021117415
100	0x3c75ea67	0.015009499
101	0xbde48af8	-0.11159319
102	0xbb9157e0	-0.0044355243
103	0x3dbee352	0.09320702
104	0xbc0589b3	-0.008150506
105	0x3dea86e1	0.11451507
106	0xbd670c7e	-0.056408398
107	0xbc8b75a3	-0.017023867
108	0x3db57a39	0.08861203
109	0x3e08a638	0.13344657
110	0x3d40204f	0.046905812
111	0x3d1bb139	0.03801081
112	0x3d629ad6	0.055323444
113	0x3ded49fd	0.11586378
114	0x3c7e97c3	0.0155391125
115	0xbd625749	-0.055259023
116	0x3d8a63cf	0.06757318
117	0x3dc35f34	0.09539643
118	0xbd9f0ebb	-0.077664815
119	0xbd04f5f4	-0.03246112
120	0x3dd33543	0.10312893
121	0xbdf0688b	-0.1173869
122	0xbdbfe619	-0.093700595
123	0xbd375ab4	-0.044764236
124	0x3dd55f70	0.10418594
125	0xbdb80221	-0.08984781
126	0xbd502bd8	-0.050823063
127	0xbde7e386	-0.113226935
128	0x3c8521b6	0.016251426
129	0x3d3b9b05	0.045802135
130	0xbc2869e0	-0.010279149
131	0x3c1451ec	0.009052735
132	0xbc426816	-0.011865636
133	0xbdca3552	-0.09873451
134	0xbdd98d44	-0.106226474
135	0x3d9a7000	0.075408936
136	0xbd347220	-0.04405415
137	0x3d85c63f	0.06531953
138	0x3def2172	0.11676301
139	0x3e094a2c	0.134072
140	0x3d9b65e7	0.07587796
141	0xbb1a60d7	-0.0023556256
142	0x3dcd103b	0.10012861
143	0x3df8cf28	0.12148887
144	0x3c18eb75	0.009333481
145	0xbd5697f9	-0.052391026
146	0x3d9cf59b	0.07664033
147	0xbd1f569d	-0.03890096
148	0xbd44e7de	-0.04807269
149	0xbe056f5b	-0.1303076
150	0xbdfbadee	-0.12289034
151	0x3d1078af	0.035271343
152	0xbdf894d3	-0.12137761
153	0xbd68de4f	-0.056852635
154	0x3d98c008	0.07458502
155	0xbdb6c4d7	-0.08924263
156	0x3dd1f47f	0.10251712
157	0xbdf19ef6	-0.117978975
158	0xbcee8888	-0.029117838
159	0xbc022695	-0.007943769
160	0xbd4f7537	-0.050648894
161	0xbdf5d3aa	-0.12003262
162	0xbd1a9842	-0.03774286
163	0x3de4fbd1	0.11180843
164	0xbe1c3047	-0.15252791
165	0xbc4e8ad0	-0.012606338
166	0x3db0e8ac	0.08638129
167	0x3dd83e7b	0.10558792
168	0x3ddd25eb	0.10798248
169	0xbb3eb2a6	-0.0029098182
170	0x3db9dd72	0.090754405
171	0x3db6ecd9	0.08931894
172	0x3e016396	0.12635645
173	0xbd971e31	-0.073788054
174	0x3d4813db	0.04884706
175	0xbdbfda64	-0.093678266
176	0xbdab43a0	-0.08362508
177	0xbd2e7a06	-0.04259684
178	0x3dc1b46b	0.0945824
179	0x3dcfa265	0.10138396
180	0x3e063492	0.13105991
181	0xbdc2ce56	-0.09512012
182	0xbc55c334	-0.013047028
183	0xbde1ed06	-0.11031537
184	0xbd28e248	-0.041231424
185	0xbd87409a	-0.06604119
186	0xbd13264c	-0.035925195
187	0xbe1ab694	-0.1510871
188	0xbdee40e7	-0.11633473
189	0xbced869c	-0.02899485
190	0xbd26991f	-0.04067337
191	0xbe00dd12	-0.12584332

fc.6.bias f4 [3]
0	0xbdce8220	-0.10083413
1	0x3daa6aec	0.08321175
2	0xbdabd1a1	-0.08389593

exp_avg f4 [256, 20]
0	0xb77d910d	-1.5113747e-05
1	0x3abb4ee1	0.0014290476
2	0xb90e63ba	-0.00013579326
3	0xb9d142bf	-0.00039913316
4	0xb778d03b	-1.4830434e-05
5	0xb6fa2427	-7.4547893e-06
6	0x3aba543b	0.0014215776
7	0xb90ec783	-0.00013616499
8	0xb9ebfc22	-0.00045010546
9	0xb778d03b	-1.4830434e-05
10	0x38bd4960	9.0258894e-05
11	0x3ab9398c	0.001413153
12	0xb90f2b45	-0.00013653662
13	0xb9ed4917	-0.0004525862
14	0xb778d03b	-1.4830434e-05
15	0x389f6d26	7.602041e-05
16	0x3ab81cd4	0.0014046677
17	0xb90f8ecb	-0.00013690737
18	0xb9e820b3	-0.0004427485
19	0xb778c53f	-1.4827877e-05
20	0xb9b1cedb	-0.0003391419
21	0x3a7c24b3	0.0009618506
22	0xba00c4cd	-0.0004912138
23	0x3a4ac1c8	0.0007734564
24	0x381c7966	3.730636e-05
25	0xb9a2c923	-0.00031048906
26	0x3a7fdf3a	0.00097607414
27	0xba0084eb	-0.0004902619
28	0x3a3cd6d4	0.0007203643
29	0x381d072e	3.7438404e-05
30	0xb961780f	-0.00021502397
31	0x3a81b76a	0.0009896581
32	0xba004675	-0.00048933114
33	0x3a3d6e56	0.0007226219
34	0x381d228b	3.7463888e-05
35	0xb9857e37	-0.00025461774
36	0x3a838038	0.0010032719
37	0xba0007ea	-0.0004883992
38	0x3a3cea6c	0.00072065624
39	0x381d27c9	3.746877e-05
40	0xb98bb67c	-0.00026648107
41	0xbb9d66b3	-0.0048035025
42	0x37cb003c	2.4199595e-05
43	0x3b0cf21d	0.0021506615
44	0x38c8bb9b	9.5716874e-05
45	0xb988b07f	-0.0002607144
46	0xbb9c146f	-0.004763178
47	0x37df1356	2.6592676e-05
48	0x3b0e069f	0.0021671427
49	0x38c8a59f	9.5675925e-05
50	0xba216b1a	-0.0006157622
51	0xbb9abf91	-0.0047225435
52	0x37f3230f	2.8984183e-05
53	0x3b0b747d	0.002127915
54	0x38c8a59f	9.5675925e-05
55	0xba1eebe9	-0.0006062375
56	0xbb9970e0	-0.004682645
57	0x38039a21	3.1376378e-05
58	0x3b09feae	0.0021056342
59	0x38c8a598	9.5675874e-05
60	0xb90b815a	-0.0001330426
61	0x3b280454	0.0025637345
62	0xb9b41154	-0.00034345186
63	0xb9c4a2c1	-0.00037505294
64	0xb7963401	-1.790561e-05
65	0xb9006c5c	-0.00012247398
66	0x3b278c52	0.0025565815
67	0xb9b44c44	-0.00034389098
68	0xb9e1596b	-0.00042981966
69	0xb7963401	-1.790561e-05
70	0x38b5580c	8.6471526e-05
71	0x3b27064c	0.002548593
72	0xb9b488f2	-0.00034434308
73	0xb9af41c2	-0.00033427594
74	0xb7963401	-1.790561e-05
75	0x3888d454	6.5245345e-05
76	0x3b269dc8	0.0025423635
77	0xb9b4c56f	-0.00034479375
78	0xb98e5777	-0.00027149517
79	0xb7964263	-1.7912307e-05
80	0x397bb584	0.00024004845
81	0x3b9d687f	0.0048037167
82	0xb90ffa80	-0.00013730861
83	0xbae3c4e9	-0.0017377409
84	0xb8c08cf7	-9.18153e-05
85	0x3988756d	0.0002602743
86	0x3b9c572a	0.004771133
87	0xb91262a2	-0.00013960389
88	0xbaf154cc	-0.0018412112
89	0xb8c081a6	-9.179422e-05
90	0x3a1ae432	0.00059086375
91	0x3b9b358f	0.0047366093
92	0xb914ca90	-0.0001418984
93	0xbaea1965	-0.0017860351
94	0xb8c066b9	-9.174407e-05
95	0x3a11eb61	0.0005566385
96	0x3b9a1ca4	0.0047031213
97	0xb9173240	-0.00014419202
98	0xbae9f837	-0.0017850463
99	0xb8c06809	-9.1746515e-05
100	0x3869b1ed	5.5717235e-05
101	0x38fa5514	0.00011936776
102	0x38638817	5.424776e-05
103	0xb7dc472d	-2.6259188e-05
104	0xb6b7619b	-5.4651878e-06
105	0x3873c621	5.8120237e-05
106	0x38f8f00c	0.00011870274
107	0x3863024b	5.4123153e-05
108	0x35c47e7b	1.4639949e-06
109	0xb6b7619b	-5.4651878e-06
110	0x3865170d	5.4619322e-05
111	0x38f8f609	0.00011871389
112	0x386270cd	5.3987653e-05
113	0x383e0ae7	4.5309684e-05
114	0xb6b7619b	-5.4651878e-06
115	0x385e967c	5.3069074e-05
116	0x38fac561	0.00011957694
117	0x3861dd17	5.3850086e-05
118	0x38c86884	9.556211e-05
119	0xb6b7619c	-5.465188e-06
120	0x00000000	0.0
121	0x00000000	0.0
122	0x00000000	0.0
123	0x00000000	0.0
124	0x00000000	0.0
125	0x00000000	0.0
126	0x00000000	0.0
127	0x00000000	0.0
128	0x00000000	0.0
129	0x00000000	0.0
130	0x00000000	0.0
131	0x00000000	0.0
132	0x00000000	0.0
133	0x00000000	0.0
134	0x00000000	0.0
135	0x00000000	0.0
136	0x00000000	0.0
137	0x00000000	0.0
138	0x00000000	0.0
139	0x00000000	0.0
140	0x3854f988	5.0777133e-05
141	0x38fa68af	0.00011940428
142	0x38491a63	4.794671e-05
143	0x38eb8e6d	0.00011232202
144	0xb6c9927d	-6.0073203e-06
145	0x38697298	5.5658253e-05
146	0x38fd8a16	0.000120897006
147	0x3848a6fd	4.7839236e-05
148	0x38e09706	0.00010709283
149	0xb6c922c6	-5.994315e-06
150	0x3880a228	6.1337196e-05
151	0x3900e38e	0.00012291802
152	0x3848051a	4.7688467e-05
153	0x38f17ea6	0.000115153656
154	0xb6c9cefc	-6.014363e-06
155	0x3883abab	6.2785424e-05
156	0x39032f07	0.00012510653
157	0x38476177	4.753607e-05
158	0x390d520b	0.00013477371
159	0xb6c9cefc	-6.014363e-06
160	0x39897b8b	0.00026222723
161	0xbb979b89	-0.0046266955
162	0x39d50d1b	0.0004063629
163	0x3a4732e8	0.0007598833
164	0x34badf05	3.4807468e-07
165	0x39a75e06	0.00031922775
166	0xbb972a43	-0.0046131923
167	0x39d5153d	0.0004064235
168	0x3a5edcb9	0.0008501518
169	0x34a39205	3.046736e-07
170	0x384e2d1e	4.9156246e-05
171	0xbb96a546	-0.004597339
172	0x39d51707	0.00040643683
173	0x3a5850dd	0.00082517957
174	0x347a393e	2.3303889e-07
175	0x38b4e02f	8.624826e-05
176	0xbb96237e	-0.0045818677
177	0x39d517c5	0.00040644236
178	0x3a441d5b	0.0007481181
179	0x347a38d7	2.3303743e-07
180	0xba609a0b	-0.0008567876
181	0x3b224d98	0.0024765488
182	0xbaab6157	-0.0013075274
183	0x3ab1f7a4	0.0013577831
184	0x38b233f4	8.4973784e-05
185	0xba615626	-0.0008595906
186	0x3b23f5b2	0.0025018272
187	0xbaab19a6	-0.0013053908
188	0x3a9f6fc4	0.0012164046
189	0x38b29445	8.515319e-05
190	0xb9e18a9d	-0.0004301862
191	0x3b257755	0.002524813
192	0xbaaad29e	-0.001303274
193	0x3aace02c	0.0013189367
194	0x38b29445	8.515319e-05
195	0xb9ec2d5e	-0.0004504723
196	0x3b2717a2	0.0025496264
197	0xbaaa8b62	-0.001301151
198	0x3ac83645	0.0015274963
199	0x38b29445	8.515319e-05
200	0xb9375ad4	-0.00017486076
201	0x3aa3429f	0.0012455768
202	0xb995696a	-0.00028498034
203	0x3913b298	0.00014085544
204	0x36a3dcf6	4.883502e-06
205	0xb93462c5	-0.00017202932
206	0x3aa39b3d	0.0012482178
207	0xb9955907	-0.00028485825
208	0x38c3ce36	9.3367344e-05
209	0x36a3dcf6	4.883502e-06
210	0xb876678a	-5.87474e-05
211	0x3aa3d5fb	0.0012499684
212	0xb99548a1	-0.00028473607
213	0x38b0e9de	8.435895e-05
214	0x36a4a043	4.906238e-06
215	0xb8875ceb	-6.454609e-05
216	0x3aa40b0d	0.00125155
217	0xb995382c	-0.00028461346
218	0x38b38027	8.5592554e-05
219	0x36a485f0	4.9031732e-06
220	0x39222b5a	0.00015465674
221	0x3b147068	0.0022650007
222	0xb899f60b	-7.3414376e-05
223	0xba6aeff8	-0.000896215
224	0xb84bb7be	-4.8570095e-05
225	0x3938d689	0.00017627528
226	0x3b13567b	0.0022481966
227	0xb89c81eb	-7.462859e-05
228	0xba768552	-0.00094040215
229	0xb84b9bd3	-4.8544094e-05
230	0x39ad1ea3	0.00033019957
231	0x3b122ea9	0.0022305644
232	0xb89f0d64	-7.584205e-05
233	0xba7db4f3	-0.00096781476
234	0xb84b529e	-4.8475915e-05
235	0x399e910f	0.00030244185
236	0x3b10fe35	0.0022124175
237	0xb8a19812	-7.7054036e-05
238	0xba7e0fb0	-0.00096916687
239	0xb84b4f04	-4.847256e-05
240	0x390767aa	0.00012913221
241	0x399c7426	0.00029841176
242	0x390120f5	0.00012314676
243	0x399b94c1	0.00029674734
244	0xb76db7ff	-1.4169141e-05
245	0x390b3325	0.00013275126
246	0x399ee289	0.0003030489
247	0x3900d333	0.00012285709
248	0x398d0ab1	0.0002690158
249	0xb76c8fc5	-1.410017e-05
250	0x39100d05	0.0001373776
251	0x39a189f2	0.0003081109
252	0x3900743c	0.00012250332
253	0x398d0ab1	0.0002690158
254	0xb76c8fc5	-1.410017e-05
255	0x39159402	0.00014264885
